Machine Learning With PyTorch and Scikit-Learn/lightning_logs/version_2/checkpoints/epoch=9-step=8600.ckpt (torch, 317804 bytes, 18 tensors)

model.1.weight f4 [32, 784]
0.01840226 -0.01576351 -0.0069236252 0.016763177 -0.03362275 0.021418475 -0.0073473323 0.018169425
0.004964892 -0.0043730065 0.009905748 0.00176185 -0.013921032 -0.040890794 -0.0026038848 -0.0032152608
0.0051765703 -0.00014267117 0.031220239 0.011113934 -0.013300223 -0.02157005 -0.0059862733 -0.015405025
-0.011444591 0.0017100573 0.021290276 0.019412026 -0.034912534 0.022140019 0.009977281 0.03387698
0.023573566 -0.0826701 -0.14979567 -0.12489485 -0.12917323 -0.1369776 -0.044524085 -0.0830574
-0.1385204 -0.25936443 0.035124972 0.06307933 -0.061823364 -0.07615575 -0.2303051 -0.13309285
-0.12881328 -0.059325032 -0.034335293 -0.01702792 0.019379787 -0.008681331 0.035573196 0.02862816
-0.0016722716 -0.023838684 0.02174865 -0.1652618 -0.27007332 -0.120549984 -0.0928288 -0.21051338
-0.2312616 -0.0578585 -0.012540863 -0.14412226 -0.30337483 -0.2612749 -0.0182986 0.27960733
0.19180141 -0.10569055 -0.14241809 0.0024283223 0.0040201815 -0.055161558 -0.006547756 0.123461336
-0.08889815 -0.02694675 0.002171941 -0.0060859714 0.020975858 -0.020683417 0.19809128 0.070827425
-0.21773508 0.11764506 0.111390665 0.13557631 0.3295431 0.17817025 0.14213164 0.12837909
0.22021814 0.08880339 0.09761923 0.13653964 0.11933531 -0.054864343 -0.17345752 -0.19899496
-0.063821316 -0.1828866 -0.1559438 -0.2609481 0.035093684 -0.25312954 0.017018614 0.026677094
0.033864807 0.06617165 0.29296023 0.3400831 0.28158614 0.3207373 0.17669398 0.19287021
0.2474976 0.24106824 0.28352815 0.14181688 0.21173547 0.1577556 0.08371614 0.070433445
0.054423135 -0.030556375 0.054835834 -0.04165934 -0.12102678 0.031477086 -0.045313954 -0.33122197
-0.06448859 -0.08410768 0.035469912 -0.036827136 -0.016365021 -0.0041587837 0.28189045 0.19196318
0.20173776 0.38167936 0.3273562 0.23276855 0.20825554 0.17165913 0.08572094 0.1443994
0.10793738 0.17753313 0.12571438 0.13403296 0.12765214 -0.085985854 0.015608027 -0.045768946
-0.10601739 -0.24487634 -0.118893 -0.16186665 -0.120585054 -0.10579108 -0.10780379 0.0017863525
-0.028461372 0.15593563 -0.032465875 0.13919948 0.17301226 0.27688622 0.29837525 0.16242489
0.16459072 0.13388526 0.0013289952 0.07636818 -0.0012538111 0.09206847 0.0035652053 0.030766534
0.0050096805 -0.02606059 -0.08027041 -0.15299843 -0.039173227 -0.08879147 -0.14839002 -0.13738762
-0.06074478 -0.09819678 0.21584481 0.05787031 0.025879782 0.41374487 -0.06856623 0.0643713
0.22708322 0.14842889 0.16890578 0.033872925 -0.016640905 -0.020934297 -0.09058411 -0.057662904
-0.005398881 -0.03574648 -0.061522536 -0.11795565 -0.17572099 -0.11241264 -0.16513461 -0.12779008
0.047695324 -0.019829564 -0.15638383 -0.21406925 -0.09563192 0.3038101 -0.089439884 0.06041588
0.021231247 -0.03330412 -0.03208069 0.10252198 0.23796101 0.12816441 0.015258212 -0.10091947
-0.06381684 -0.1390328 -0.09075278 -0.06890915 -0.11196217 -0.08447645 -0.005495265 -0.019476317
-0.17150603 -0.11830287 -0.10147467 -0.16852869 -0.13097896 -0.08328004 -0.03291711 -0.23970138
-0.19229095 -0.084560834 -0.09613831 0.06297131 0.03585792 -0.053547878 0.13017753 0.08458515
00000000: 56c0 963c 7a22 81bc 94df e2bb ee52 893c
00000010: 02b8 09bd cc75 af3c e4c1 f0bb 0cd8 943c
00000020: 88b0 a23b 704b 8fbb b84b 223c e0ed e63a
00000030: 0a15 64bc 1b7d 27bd f0a5 2abb 20b7 52bb
00000040: 38a0 a93b 009a 15b9 96c1 ff3c 3817 363c
00000050: 2ee9 59bc acb3 b0bc 8028 c4bb 5c65 7cbc
00000060: 1882 3bbc 0024 e03a f268 ae3c f805 9f3c
00000070: 7200 0fbd fc5e b53c c077 233c 97c2 0a3d
00000080: 5a1d c13c f14e a9bd 0964 19be dfc8 ffbd
00000090: fd45 04be db43 0cbe e35e 36bd 001a aabd
000000a0: 4bd8 0dbe 6acb 84be 34df 0f3d bc2f 813d
000000b0: 7f3a 7dbd 8cf7 9bbd 1ad5 6bbe 7e49 08be
000000c0: a1e7 03be cefe 72bd 2aa3 0cbd 237e 8bbc
000000d0: 5cc2 9e3c 243c 0ebc 33b5 113d 9a85 ea3c
000000e0: 2030 dbba 5849 c3bc 3a2a b23c 643a 29be
000000f0: 0d47 8abe e9e2 f6bd 071d bebd d290 57be
00000100: d7cf 6cbe 09fd 6cbd 3178 4dbc c994 13be
00000110: f253 9bbe d3c5 85be f2e6 95bc b128 8f3e
00000120: 9767 443e 4974 d8bd 0cd6 11be 7d24 1f3b
00000130: babb 833b 16f1 61bd 8f8e d6bb 4cd9 fc3d
00000140: 3c10 b6bd 6ebf dcbc 2057 0e3b d46c c7bb
00000150: 90d5 ab3c 4570 a9bc 71d8 4a3e f80d 913d
00000160: f2f5 5ebe e5ef f03d ca20 e43d 84d4 0a3e
00000170: e0b9 a83e 4372 363e f58a 113e cf75 033e
00000180: dd80 613e 8dde b53d 97ec c73d 0cd1 0b3e
00000190: 1266 f43d 6fb9 60bd d99e 31be 56c5 4bbe
000001a0: c0b4 82bd a046 3bbe bbaf 1fbe fd9a 85be
000001b0: 65be 0f3d 329a 81be 9f6a 8b3c ec89 da3c
000001c0: d3b5 0a3d 0185 873d e2fe 953e 5f1f ae3e
000001d0: 0f2c 903e ae37 a43e 44ef 343e c57f 453e
000001e0: 0370 7d3e 98da 763e 9a2a 913e 7238 113e
000001f0: 2fd1 583e af8a 213e 5e73 ab3d 693f 903d
00000200: cbea 5e3d 5d51 fabc 8a9b 603d fca2 2abd
00000210: e3dc f7bd 1eee 003d 209b 39bd ed95 a9be
00000220: 9812 84bd a640 acbd e648 113d 0dd8 16bd
00000230: f00f 86bc 6846 88bb f253 903e ff91 443e
00000240: 5894 4e3e 7a6b c33e 3b9b a73e e15a 6e3e
00000250: f140 553e 69c7 2f3e 768e af3d 70dd 133e
00000260: 460e dd3d 3fcb 353e 45bb 003e f03f 093e
00000270: 3eb7 023e 5a19 b0bd cfb8 7f3c 3878 3bbd
00000280: a51f d9bd ddc0 7abe 2c7e f3bd 5fc0 25be
00000290: 4cf5 f6bd fea8 d8bd 3cc8 dcbd 0b24 ea3a
000002a0: d327 e9bc 97ad 1f3e f0fa 04bd 4f8a 0e3e
000002b0: 202a 313e 08c4 8d3e a4c4 983e b652 263e
000002c0: 788a 283e 3819 093e ae31 ae3a ec66 9c3d
000002d0: eb56 a4ba 658e bc3d 38a6 693b 190a fc3c
000002e0: 3f28 a43b 057d d5bc d064 a4bd 9fab 1cbe
000002f0: 1b74 20bd 4dd8 b5bd 8ef3 17be 57af 0cbe
00000300: 85cf 78bd 651b c9bd 6c06 5d3e 6b09 6d3d
00000310: d601 d43c 5ed6 d33e 746c 8cbd 1ad5 833d
00000320: 8188 683e befd 173e a3f5 2c3e 56be 0a3d
00000330: 8252 88bc 677e abbc 2984 b9bd f02f 6cbd
00000340: 19e9 b0bb e76a 12bd 0eff 7bbd bb92 f1bd
00000350: 34f0 33be 9938 e6bd 0c19 29be 67db 02be
00000360: 2c5c 433d 9c71 a2bc 1523 20be f834 5bbe
00000370: abda c3bd ff8c 9b3e 422c b7bd a476 773d
00000380: 27ed ad3c e769 08bd 0b67 03bd 0bf7 d13d
00000390: 0dac 733e 883d 033e 94fd 793c deae cebd
000003a0: 67b2 82bd 9d5e 0ebe 98dc b9bd 3e20 8dbd
000003b0: 6c4c e5bd fd01 adbd a011 b4bb cc8c 9fbc
000003c0: 479f 2fbe c648 f2bd f4d1 cfbd c992 2cbe
000003d0: 591f 06be ba8e aabd 17d4 06bd 4774 75be
000003e0: ebe7 44be 3b2e adbd 2ae4 c4bd 1af7 803d
000003f0: c1df 123d 0555 5bbd 424d 053e fb3a ad3d

model.1.bias f4 [32]
0.014777541 0.14519867 -0.26551923 -0.034181677 0.31966805 0.26974395 0.24775654 -0.06584933
0.020626228 0.030021386 0.014278619 0.29677665 0.3650667 0.18547788 0.09619006 -0.18133615
0.16488428 0.03188263 0.0147359315 0.3456082 0.14124511 0.047620732 0.20274967 0.05252382
-0.03904026 -0.01933 -0.12552026 0.06215007 0.086060286 0.3152347 0.013648291 -0.06475197
00000000: 801d 723c f6ae 143e 23f2 87be 1602 0cbd
00000010: 88ab a33e e11b 8a3e e4b3 7d3e 03dc 86bd
00000020: 56f8 a83c 69ef f53c def0 693c 1cf3 973e
00000030: 06ea ba3e eaed 3d3e 4bff c43d 2fb0 39be
00000040: 6dd7 283e 5c97 023d fa6e 713c 8ff3 b03e
00000050: 8fa2 103e f50d 433d 9c9d 4f3e 3823 573d
00000060: aee8 1fbd f359 9ebc 6288 00be 1291 7e3d
00000070: 6040 b03d 7166 a13e 159d 5f3c ae9c 84bd

model.3.weight f4 [16, 32]
-0.23231179 -0.9347208 0.27385834 0.3421605 -0.16226487 0.04959344 -0.01059319 0.033687253
-0.29784963 -0.03974654 0.039566267 0.17484751 0.13968447 0.09734614 0.043399066 -0.35790208
0.004563457 0.35679868 -0.43378925 -0.2590678 -0.12823084 -0.07911532 -0.30129257 -0.2076682
-0.16036674 -0.14472917 0.12952882 0.35927784 0.36273557 -0.052877024 0.17149399 0.4460127
-0.3195275 -0.2585118 0.33246332 0.35514322 0.24041207 -0.014622922 -0.2209203 0.21880597
0.24999446 -0.10693216 0.14837863 0.000996862 0.25649157 0.1901626 0.22855765 -0.11205616
0.1893246 -0.110334136 0.55129606 -0.014553261 0.26659408 -0.018851425 -0.094455704 -0.20795654
-0.22065537 0.047676697 -0.5501255 -0.049775526 0.13753541 -0.35316828 0.20002231 -0.11973361
0.016004369 -0.04573893 0.09568087 -0.29873914 0.29064384 0.29798365 0.57833517 0.12168012
-0.19116491 0.29268792 0.021345908 -0.06516227 -0.07762713 0.15537246 0.20719758 0.0004612257
0.14977515 0.016857293 -0.30380717 0.108607024 0.02882183 -0.19497025 -0.2599765 -0.057744797
-0.2593123 0.031441808 0.7229771 0.27177396 0.47804517 0.05964094 0.22666715 -0.19222954
-0.36454272 0.2892211 0.21832636 -0.18571332 0.027504668 0.2820131 -0.2904776 0.10383127
0.33498982 -0.35186443 0.044002626 0.16321827 -0.20340241 0.14999509 0.22247694 0.5805711
-0.052323636 0.055987816 0.3718263 0.11443117 0.87986577 0.5856261 0.20904736 0.13460958
0.3920981 -0.031355888 0.08151154 -0.15129721 -0.22598302 0.52356863 -0.1806929 0.4264728
-0.261492 0.34696266 0.045900047 0.19897263 0.13612144 -0.18983637 -0.39512017 0.073001735
0.12292901 -0.44048274 0.08075194 -0.008450858 0.0914833 0.22475278 0.102631986 -0.4086
-0.35005072 -0.3886599 0.008233613 0.089729026 0.39063084 0.32789585 0.09706516 0.6131472
-0.50804925 0.16006757 0.35278055 0.17612754 0.3081161 0.5086135 0.29623997 -0.124858074
0.24508834 0.57661134 0.05720497 0.27811337 -0.31635237 -0.004793905 -0.22314125 0.14212072
0.32426855 -0.15266636 -0.018089881 0.05897002 0.2842525 -0.15464291 0.009806694 0.7344761
0.36073783 -0.01762933 0.22325519 -0.17612979 -0.01580107 0.37512478 -0.09597954 0.056085426
-0.13403206 -0.08320012 -0.44450688 0.012513333 -0.45818767 0.45463988 -0.27857515 0.2334971
0.23909159 -0.2908723 -0.008264966 0.03634237 0.1707869 0.08283159 0.3573613 0.23629169
-0.117905654 0.4877683 0.1413498 0.06543986 0.16999033 0.15188096 0.06338756 0.2356412
0.3176238 0.2206483 -0.07109629 -0.19622003 -0.47521937 -0.1255259 0.33413786 -0.3733052
0.3945942 0.095813975 -0.14651509 0.069968484 0.09247133 -0.8243358 0.101288475 0.004568049
0.6098244 0.29965958 -0.38863644 -0.31317058 -0.09246587 0.2692705 -0.17436974 0.15044749
-0.27461514 -0.042355146 -0.070328735 0.07754808 0.25554326 0.002114324 0.33433095 0.31522182
0.20620832 0.20632641 0.062918186 0.25790182 0.20298319 0.05708521 -0.47872105 -0.1737639
-0.3485436 -0.00264429 0.16812992 0.20125154 0.19856651 0.72234946 -0.36112761 0.08178568
00000000: 24e3 6dbe dd49 6fbf 2937 8c3e a92f af3e
00000010: c328 26be 7e22 4b3d 0f8f 2dbc a5fb 093d
00000020: bf7f 98be 45cd 22bd 3d10 223d 3a0b 333e
00000030: 7209 0f3e 6a5d c73d 38c3 313d f13e b7be
00000040: 0d89 953b 51ae b63e a019 debe 89a4 84be
00000050: f24e 03be 3707 a2bd 0543 9abe f9a6 54be
00000060: 2e37 24be e233 14be 34a3 043e 44f3 b73e
00000070: 7ab8 b93e 9495 58bd 1f9c 2f3e c75b e43e
00000080: 1c99 a3be a95b 84be a238 aa3e 55d5 b53e
00000090: 952e 763e fb94 6fbc ee38 62be ac0e 603e
000000a0: 8cfe 7f3e 40ff dabd 91f0 173e 23a9 823a
000000b0: dd52 833e fcb9 423e 040b 6a3e b37d e5bd
000000c0: 4fde 413e ddf6 e1bd bd21 0d3f cd70 6ebc
000000d0: 057f 883e 4e6e 9abc fe71 c1bd 8ff2 54be
000000e0: 7bf3 61be a448 433d 06d5 0cbf 6ce1 4bbd
000000f0: 15d6 0c3e 79d2 b4be a6d2 4c3e e536 f5bd
00000100: 981b 833c bf58 3bbd 55f4 c33d 56f4 98be
00000110: 45cf 943e 5091 983e c60d 143f 6d33 f93d
00000120: bcc0 43be 31db 953e 9ddd ae3c cc73 85bd
00000130: f9fa 9ebd f519 1f3e 9a2b 543e aad0 f139
00000140: a85e 193e 4e18 8a3c 9d8c 9bbe 5c6d de3d
00000150: c21b ec3c 48a6 47be a41b 85be cf85 6cbd
00000160: 95c4 84be 20c9 003d 0715 393f f525 8b3e
00000170: 56c2 f43e 0f4a 743d 6f1b 683e d2d7 44be
00000180: 58a5 babe ca14 943e f290 5f3e a22b 3ebe
00000190: 7851 e13c 0564 903e 7bb9 94be 7da5 d43d
000001a0: c983 ab3e 9327 b4be 193c 343d b122 273e
000001b0: b948 50be 5098 193e ffd0 633e 4fa0 143f
000001c0: 4f51 56bd 7b53 653d 0460 be3e e45a ea3d
000001d0: e23e 613f 98eb 153f 8310 563e 18d7 093e
000001e0: 15c1 c83e 086f 00bd 86ef a63d a8ed 1abe
000001f0: 1868 67be 9808 063f 8f07 39be a55a da3e
00000200: 48e2 85be 17a5 b13e b001 3c3d 7bbf 4b3e
00000210: 6b63 0b3e 7764 42be 314d cabe ef81 953d
00000220: 34c2 fb3d f486 e1be 4661 a53d 7875 0abc
00000230: 995b bb3d 9825 663e b830 d23d 0534 d1be
00000240: d939 b3be 6efe c6be 47e6 063c dac3 b73d
00000250: c400 c83e f7e1 a73e 19ca c63d 37f7 1c3f
00000260: 840f 02bf c1e8 233e a79f b43e c75a 343e
00000270: 65c1 9d3e 7f34 023f c4ac 973e 97b5 ffbd
00000280: 70f8 7a3e cd9c 133f c24f 6a3d e064 8e3e
00000290: f0f8 a1be 3116 9dbb 247f 64be 1888 113e
000002a0: 8706 a63e 9254 1cbe 3b31 94bc 8c8a 713d
000002b0: 8b89 913e b65a 1ebe 42ac 203c a006 3c3f
000002c0: a1b2 b83e 626b 90bc 029d 643e 5e5b 34be
000002d0: 3f71 81bc 5b10 c03e ec90 c4bd d5b9 653d
000002e0: b33f 09be d364 aabd 6896 e3be b904 4d3c
000002f0: 9397 eabe 8fc6 e83e 67a1 8ebe dd19 6f3e
00000300: 6dd4 743e 37ed 94be c869 07bc bddb 143d
00000310: c3e2 2e3e 9ca3 a93d 0ff8 b63e 73f6 713e
00000320: 8578 f1bd c4bc f93e 01be 103e 5505 863d
00000330: f211 2e3e af86 1b3e 56d1 813d ed4b 713e
00000340: 969f a23e a1f1 613e ef9a 91bd e7ed 48be
00000350: f44f f3be dd89 00be 1e14 ab3e dc21 bfbe
00000360: 4008 ca3e 1e3a c43d 0d08 16be a34b 8f3d
00000370: 9c61 bd3d ac07 53bf 5570 cf3d 93af 953b
00000380: 741d 1c3f fb6c 993e 5bfb c6be e557 a0be
00000390: bf5e bdbd d3dd 893e fb8d 32be e80e 1a3e
000003a0: 5b9a 8cbe 977c 2dbd 8308 90bd 87d1 9e3d
000003b0: 91d6 823e 7890 0a3b 6d2d ab3e c164 a13e
000003c0: 4628 533e 3b47 533e 40db 803d b50b 843e
000003d0: d3da 4f3e 2ed2 693d ed1a f5be 2aef 31be
000003e0: 4f74 b2be d34b 2dbb 402a 2c3e e214 4e3e
000003f0: 0555 4b3e e5eb 383f b8e5 b8be 407f a73d

model.3.bias f4 [16]
0.08902146 -0.26872236 0.20484781 -0.13203806 0.27298033 0.26203728 -0.0011059903 0.12776902
0.3125543 0.23181133 -0.035590675 0.025808161 0.12741971 0.22691981 0.19976383 0.11017383
00000000: e250 b63d fa95 89be a0c3 513e fc34 07be
00000010: 14c4 8b3e c029 863e e0f6 90ba e2d5 023e
00000020: 1e07 a03e f35f 6d3e 87c7 11bd a36b d33c
00000030: 507a 023e ab5d 683e e48e 4c3e d1a2 e13d

model.5.weight f4 [10, 16]
0.20828432 -0.23201479 -0.30694982 0.12129019 0.31063744 -0.47024053 -0.52877474 -0.4400855
-0.3865057 -0.05831506 0.00024047957 0.508534 -0.0075755697 0.104897 0.16996215 0.18069471
0.25403205 -0.5759527 -0.5175796 0.1733753 -0.37838462 0.6244223 -0.18474269 0.5153757
0.13338855 -0.033485673 -0.52886623 0.24566129 -0.055844832 -0.04197844 0.28088504 -0.72333443
-0.2585635 0.14446852 -0.4272569 0.06983737 -0.06310693 0.26577812 -0.19312426 -0.20621724
0.24031162 0.29220277 -0.36914814 0.03953847 0.34270176 -0.53993833 -0.19213532 0.41724968
-0.19367205 0.10860767 0.11703712 -0.19116014 -0.31167716 0.12385354 -0.13246408 0.28770015
-0.5557631 0.22301075 0.3110202 -0.43395996 -0.26627222 0.050161988 -0.06878357 0.32839417
-0.22333638 -0.1251263 -0.017520726 -0.74497765 -0.2155703 -0.07219882 0.20874442 -0.34800878
0.22723097 0.08225228 0.25544095 0.4708415 0.29137012 0.49062875 -0.38841337 -0.70529133
-0.12214181 -0.4213095 0.38753003 -0.07948547 0.21132435 -0.20561387 -0.56209546 0.24205548
0.31723 -0.6209879 -0.055341933 -1.0685226 -0.024104962 0.3196757 0.12834506 0.17737773
-0.11832536 0.32363507 -0.22256479 0.25107324 0.45562845 -0.06676461 -0.57939905 -0.029888015
0.11938356 -0.64512414 -0.26923406 0.086086884 0.2116167 0.10649677 -0.3798131 -0.54722375
-0.6887955 -0.38786188 0.20426956 0.42328063 -0.3710652 -0.023449603 0.24466379 -0.77682805
0.06716509 0.36868533 -0.7451017 0.34219572 -0.57440525 -0.13547356 0.27880105 0.06969229
0.28474632 0.40031442 -0.07360609 0.16748025 -0.5075918 -0.15842995 0.09218063 -0.13726963
0.15430135 -0.49887383 0.5317394 -0.42479515 0.32805362 -0.17549564 0.014111861 -0.13014628
0.5651954 -0.1277356 0.21062125 -0.5796545 -0.011901254 -0.8214181 0.09323207 0.08658352
0.112097144 0.2154272 -0.07845161 -0.008436033 -0.21231838 -0.15133867 0.4039243 -0.3960018
00000000: 7c48 553e 4995 6dbe 8728 9dbe fe66 f83d
00000010: df0b 9f3e 5ec3 f0be c85d 07bf e352 e1be
00000020: 13e4 c5be c6db 6ebd 3e29 7c39 492f 023f
00000030: 7c3c f8bb 3dd4 d63d 8f0a 2e3e 0908 393e
00000040: 7d10 823e a371 13bf 1980 04bf 4b89 313e
00000050: a1bb c1be 24da 1f3f 302d 3dbe a9ef 033f
00000060: 0297 083e 4628 09bd c763 07bf a28e 7b3e
00000070: 8dbd 64bd 96f1 2bbd 2ad0 8f3e 722c 39bf
00000080: 6f62 84be 8eef 133e 6bc1 dabe e506 8f3d
00000090: 353e 81bd 1214 883e 5ec2 45be 9d2a 53be
000000a0: 4014 763e 9a9b 953e fc00 bdbe 17f3 213d
000000b0: 9b76 af3e 6639 0abf 1fbf 44be c0a1 d53e
000000c0: f751 46be b36d de3d 28b1 ef3d 7cbf 43be
000000d0: 2694 9fbe eda6 fd3d aaa4 07be 6f4d 933e
000000e0: 7e46 0ebf ee5c 643e 0a3e 9f3e 0030 debe
000000f0: d554 88be a876 4d3d 66de 8cbd 4823 a83e
00000100: 4bb2 64be 1c21 00be a087 8fbc dbb6 3ebf
00000110: 76be 5cbe fadc 93bd 19c1 553e 352e b2be
00000120: 3caf 683e e273 a83d 28c9 823e 2312 f13e
00000130: 772e 953e b133 fb3e 1ede c6be f98d 34bf
00000140: 7c25 fabd e1b5 d7be 566a c63e 47c9 a2bd
00000150: 6965 583e 718c 52be 7de5 0fbf 64dd 773e
00000160: f86b a23e 10f9 1ebf 39ae 62bd 59c5 88bf
00000170: c577 c5bc 89ac a33e e36c 033e 82a2 353e
00000180: 9154 f2bd 7fb3 a53e 06e8 63be ac8c 803e
00000190: 2248 e93e e2bb 88bd 7f53 14bf b6d7 f4bc
000001a0: 5e7f f43d db26 25bf 0cd9 89be 524e b03d
000001b0: 0cb2 583e fb1a da3d dd76 c2be db16 0cbf
000001c0: e754 30bf d595 c6be 0a2c 513e 3db8 d83e
000001d0: 42fc bdbe 6219 c0bc 2589 7a3e 34de 46bf
000001e0: da8d 893d 53c4 bc3e fcbe 3ebf 4734 af3e
000001f0: 390c 13bf 95b9 0abe 03bf 8e3e d5ba 8e3d
00000200: 45ca 913e 03f6 cc3e cabe 96bd f17f 2b3e
00000210: 89f1 01bf 763b 22be 33c9 bc3d 6990 0cbe
00000220: 2c01 1e3e 646c ffbe 1320 083f c07e d9be
00000230: a5f6 a73e 21b5 33be 6f35 673c 1145 05be
00000240: a5b0 103f 1fcd 02be 19ad 573e 3d64 14bf
00000250: 7afd 42bc 7548 52bf 75f0 be3d b352 b13d
00000260: 3093 e53d f398 5c3e 3dab a0bd 4937 0abc
00000270: fd69 59be 86f8 1abe 2acf ce3e bfc0 cabe

model.5.bias f4 [10]
-0.2595646 -0.028342444 -0.13140911 -0.07717831 0.061182175 0.0038920075 -0.14240624 0.01151242
-0.009227652 -0.122848876
00000000: a7e5 84be 6a2e e8bc 1c90 06be a90f 9ebd
00000010: 299a 7a3d 0d11 7f3b f1d2 11be 979e 3c3c
00000020: 942f 17bc 3198 fbbd

exp_avg f4 [32, 784]
0.0 0.0 0.0 0.0 0.0 0.0 0.0 0.0
0.0 0.0 0.0 0.0 6e-45 6e-45 0.0 0.0
0.0 0.0 0.0 0.0 0.0 0.0 0.0 0.0
0.0 0.0 0.0 0.0 0.0 0.0 0.0 0.0
0.0 6e-45 6e-45 6.2812e-41 1.67779e-11 3.7504505e-12 7.209183e-17 2.1173079e-27
2.4060327e-28 6e-45 1.2696798e-13 2.2113592e-13 4.3410565e-27 3.6973903e-27 4.5e-44 6e-45
6e-45 6e-45 0.0 0.0 0.0 0.0 0.0 0.0
0.0 0.0 0.0 1.2047518e-28 4.0114862e-13 4.5739376e-12 2.0593532e-11 5.63004e-10
-8.587438e-09 -1.05699016e-07 -1.0137511e-07 -3.4818196e-08 -1.1226836e-08 2.0796044e-05 6.390186e-06 3.4522316e-05
3.8516147e-05 8.635528e-06 3.9647606e-05 8.660386e-06 -3.5702253e-06 6.339639e-12 1.8723765e-13 -3.6545368e-28
6e-45 0.0 0.0 0.0 0.0 0.0 -2.825399e-39 9.359988e-28
2.622895e-13 5.651825e-08 3.6981123e-07 4.6878317e-06 6.4377246e-06 -1.6457514e-05 -1.9407058e-05 3.7683137e-06
-5.1642517e-05 -4.4569824e-05 8.488695e-05 0.0002193275 0.0002612007 0.00038483122 0.00018681193 -5.626065e-05
-5.928504e-05 -2.0587759e-05 -3.1870197e-06 -5.0208195e-07 -4.0773253e-07 2.129407e-22 -6e-45 0.0
0.0 -2.5247563e-22 -2.9735056e-20 5.4298124e-13 -4.791172e-07 -7.2813855e-06 -1.35228365e-05 -2.2511103e-06
2.8908209e-05 -7.821669e-06 4.5574412e-05 7.926983e-05 3.81042e-05 -0.0002554141 0.00014855409 0.0004794465
0.00083731057 0.0008438879 0.0007792522 0.00020248105 0.00025728784 0.00013467931 -6.748017e-06 -6.424809e-06
-4.659713e-06 -2.7758329e-06 -5.8090926e-18 6e-45 0.0 0.0 -9.911694e-21 -2.849612e-11
-3.5800457e-07 -6.5177455e-06 -6.600841e-05 2.8221995e-05 -5.726433e-05 -0.0001200462 7.4438e-05 0.00042328506
0.00034026912 0.0013945582 0.002276729 0.0019239564 0.0015150744 0.0012275986 0.00097259815 0.000564609
0.00062196195 0.0005949503 5.5792796e-05 -1.7752574e-05 -5.710127e-06 -4.933635e-06 -5.4358985e-08 -6.074629e-26
0.0 -5.130019e-27 -3.6887728e-09 -1.4898786e-06 1.0624608e-06 2.1428545e-05 -0.00013260575 5.1467323e-06
-8.1706254e-05 0.00022141871 0.0004710575 0.0012757999 0.0015643416 0.002321422 0.0025126205 0.0027181327
0.0023816417 0.002090964 0.0012332745 0.00051882316 0.00044499696 0.00029129363 -1.2538346e-05 -1.9429772e-05
-8.5305254e-07 -2.6124317e-06 -5.5597843e-07 -1.004162e-19 1.4533108e-34 1.7789694e-16 5.446127e-08 -1.0811036e-06
-4.3711676e-05 -8.972326e-05 3.6287624e-06 4.2048963e-05 0.00020415324 0.00041168826 0.0005972652 0.0015090719
0.0018595124 0.0024023815 0.0029878658 0.0028426456 0.0025506776 0.00246488 0.0025109989 0.0006097972
0.00029385075 -9.194454e-06 1.959627e-05 2.485261e-05 2.0748523e-05 -1.2948251e-06 -7.051834e-07 -3.8102508e-20
5.9060147e-34 2.2132001e-15 1.0673038e-07 -5.6523463e-06 -5.1393516e-05 2.0128084e-05 9.777195e-05 -2.1769916e-05
0.00036672084 0.00013620178 0.0012720434 0.0014727256 0.0020811718 0.001955608 0.0024332334 0.0028978903
0.0023618906 0.0019520011 0.0022002887 0.00033599994 0.00021396157 0.0001285056 0.00015452814 0.00010351836
1.186202e-05 1.3435062e-05 -4.06769e-06 -1.919986e-39 -1.01802104e-16 -7.713056e-15 3.8038095e-08 -7.266623e-06
00000000: 0000 0000 0000 0000 0000 0000 0000 0000
00000010: 0000 0000 0000 0000 0000 0000 0000 0000
00000020: 0000 0000 0000 0000 0000 0000 0000 0000
00000030: 0400 0000 0400 0000 0000 0000 0000 0000
00000040: 0000 0000 0000 0000 0000 0000 0000 0000
00000050: 0000 0000 0000 0000 0000 0000 0000 0000
00000060: 0000 0000 0000 0000 0000 0000 0000 0000
00000070: 0000 0000 0000 0000 0000 0000 0000 0000
00000080: 0000 0000 0400 0000 0400 0000 18af 0000
00000090: 7994 932d 0ef5 832c 813b a624 1bc0 2713
000000a0: 1d80 9811 0400 0000 07f4 0e2a 17fa 782a
000000b0: 8bf7 ab13 fe77 9213 2000 0000 0400 0000
000000c0: 0400 0000 0400 0000 0000 0000 0000 0000
000000d0: 0000 0000 0000 0000 0000 0000 0000 0000
000000e0: 0000 0000 0000 0000 0000 0000 6eb8 1811
000000f0: 9cd3 e12a 5eee a02c 8324 b52d e2c1 1a30
00000100: f487 13b2 a6fc e2b3 8eb3 d9b3 038b 15b3
00000110: 26e0 40b2 2a73 ae37 486b d636 0ecc 1038
00000120: 668c 2138 4fe1 1037 4b4b 2638 134c 1137
00000130: 0198 6fb6 640e df2c 94cf 522a 40a2 e791
00000140: 0400 0000 0000 0000 0000 0000 0000 0000
00000150: 0000 0000 0000 0000 10c4 1e80 9f50 9412
00000160: e7a7 932a 79be 7233 788a c634 2b4c 9d36
00000170: a203 d836 3e0e 8ab7 57cc a2b7 23e3 7c36
00000180: bb9a 58b8 7cf0 3ab8 5605 b238 47fb 6539
00000190: c4f1 8839 2cc3 c939 f2e2 4339 6af9 6bb8
000001a0: d4a8 78b8 e0b3 acb7 95e0 55b6 cfc6 06b5
000001b0: 55e6 dab4 fab6 801b 0400 0080 0000 0000
000001c0: 0000 0000 b69c 989b 7a6b 0c9f ecd5 182b
000001d0: af9c 00b5 a052 f4b6 24e0 62b7 c811 17b6
000001e0: e87f f237 d039 03b7 2727 3f38 aa3d a638
000001f0: 13d2 1f38 1ae9 85b9 2fc5 1b39 385e fb39
00000200: f67e 5b3a 5c38 5d3a bb46 4c3a 1851 5439
00000210: 97e4 8639 b438 0d39 066d e2b6 b094 d7b6
00000220: a15a 9cb6 7248 3ab6 5451 d6a2 0400 0000
00000230: 0000 0000 0000 0000 033a 3b9e 8fa7 faad
00000240: c633 c0b4 02b3 dab6 ff6d 8ab8 46be ec37
00000250: 1b2f 70b8 50c1 fbb8 991b 9c38 5cec dd39
00000260: 2666 b239 9cc9 b63a 2d35 153b 442d fc3a
00000270: 7695 c63a 60e7 a03a f5f5 7e3a 4502 143a
00000280: 290b 233a 70f6 1b3a 0f03 6a38 5deb 94b7
00000290: 9e99 bfb6 9a8b a5b6 5678 69b3 8966 9695
000002a0: 0000 0000 9338 cb93 947d 7db1 d7f7 c7b5
000002b0: e099 8e35 73c1 b337 160c 0bb9 18b2 ac36
000002c0: b659 abb8 a22c 6839 44f8 f639 be38 a73a
000002d0: 980a cd3a 0023 183b c7aa 243b b322 323b
000002e0: 5115 1c3b 8e08 093b d3a5 a13a a201 083a
000002f0: 7b4e e939 c5b8 9839 c95b 52b7 1efd a2b7
00000300: 53fd 64b5 3c51 2fb6 8c3e 15b5 de19 ed9f
00000310: 9b2d 4107 e919 4d25 cde8 6933 701a 91b5
00000320: 0e57 37b8 cf29 bcb8 aa85 7336 bb5d 3038
00000330: f811 5639 ddd7 d739 ca91 1c3a 0dcc c53a
00000340: e2ba f33a 4671 1d3b 12d0 433b ae4b 3a3b
00000350: 4529 273b d389 213b 928f 243b ccda 1f3a
00000360: fb0f 9a39 e141 1ab7 ab62 a437 937a d037
00000370: 1d0d ae37 dac9 adb5 d64b 3db5 1bef 339f
00000380: d142 4408 567a 1f27 a633 e533 49a9 bdb6
00000390: 5e8f 57b8 bbd8 a837 ea0a cd38 8a9e b6b7
000003a0: 7044 c039 63d1 0e39 b2ba a63a 7908 c13a
000003b0: 4564 083b a829 003b e276 1f3b 88ea 3d3b
000003c0: f3c9 1a3b 4ada ff3a b832 103b 2629 b039
000003d0: df5a 6039 76bf 0639 d508 2239 ff17 d938
000003e0: fd02 4737 2767 6137 317d 88b6 24e8 1480
000003f0: 5bbd eaa4 31f2 0aa8 545f 2333 d1d3 f3b6

exp_avg_sq f4 [32, 784]
0.0 0.0 0.0 0.0 0.0 0.0 0.0 0.0
0.0 0.0 0.0 0.0 5.6684936e-14 2.7178073e-13 0.0 0.0
0.0 0.0 0.0 0.0 0.0 0.0 0.0 0.0
0.0 0.0 0.0 0.0 0.0 0.0 0.0 0.0
0.0 1.8099317e-15 2.065069e-12 1.1934823e-11 1.03286485e-11 1.0298943e-12 7.5276867e-13 2.7485148e-13
1.0651266e-11 7.937593e-12 8.179228e-12 1.3567003e-11 5.560045e-12 1.784582e-12 3.5587928e-13 1.2189653e-14
1.4696582e-14 1.08285407e-16 0.0 0.0 0.0 0.0 0.0 0.0
0.0 0.0 0.0 2.7319801e-14 5.9242663e-14 4.993199e-14 4.911468e-12 1.9748227e-11
8.7304436e-10 1.13994405e-08 8.886359e-09 2.5826061e-09 1.605559e-08 4.8113154e-08 3.9534868e-08 1.4283425e-07
1.857191e-07 6.275698e-08 9.139807e-08 1.0449305e-07 8.081042e-08 3.890837e-08 1.142022e-08 4.2377306e-09
5.977294e-14 0.0 0.0 0.0 0.0 0.0 4.3247614e-10 2.6267405e-11
4.071391e-10 2.6361584e-09 4.8944244e-09 8.608382e-08 2.9458508e-07 2.2100069e-07 8.7230796e-07 1.3587221e-06
2.0090972e-06 3.481188e-06 3.7429456e-06 2.8800378e-06 2.461215e-06 2.2361749e-06 1.2953626e-06 9.04991e-07
1.8848665e-07 1.1237513e-07 2.1595984e-07 1.2431319e-07 8.271026e-09 5.889579e-10 2.9177363e-15 0.0
0.0 7.1768754e-18 5.1056297e-09 1.3036797e-09 1.638359e-08 3.3404015e-07 7.420079e-07 1.4924361e-06
2.737662e-06 4.440053e-06 6.355265e-06 8.947482e-06 1.4107641e-05 1.7269522e-05 1.988729e-05 1.9214422e-05
1.7095097e-05 1.3634529e-05 8.959553e-06 5.0110775e-06 3.5546695e-06 2.5597972e-06 1.682049e-06 7.1795e-07
1.1949376e-07 5.048181e-08 1.1176454e-13 1.0155319e-15 0.0 0.0 1.0051367e-10 7.2732056e-09
5.2009174e-08 7.340413e-07 1.7743758e-06 4.9682317e-06 8.091707e-06 1.2903353e-05 1.8409799e-05 2.6775837e-05
3.6242993e-05 4.138811e-05 4.4802568e-05 4.3040287e-05 4.0056322e-05 3.087215e-05 2.206919e-05 1.4773393e-05
1.0207286e-05 6.002223e-06 2.14573e-06 2.1924116e-07 6.2313156e-08 1.5623812e-07 2.7337446e-08 8.9889915e-15
0.0 6.7011555e-14 1.6136456e-09 5.6470004e-08 4.077314e-07 1.7500698e-06 4.7579447e-06 9.793131e-06
1.4649881e-05 2.4069159e-05 3.183715e-05 3.9247057e-05 4.6858637e-05 5.17731e-05 5.238086e-05 5.0618044e-05
4.73018e-05 3.9411545e-05 2.8027054e-05 1.9855614e-05 1.3042009e-05 7.258519e-06 2.3321447e-06 5.0566786e-07
1.3545245e-07 8.1790226e-08 6.046332e-10 7.41965e-13 3.1551644e-19 1.9706951e-10 1.2645078e-09 1.836896e-07
9.880011e-07 3.1980526e-06 6.7077376e-06 1.2132217e-05 1.9870007e-05 2.7635917e-05 3.4986926e-05 4.1691575e-05
4.541755e-05 4.8335543e-05 4.8659367e-05 4.953611e-05 4.836618e-05 4.053893e-05 3.1340856e-05 2.1741233e-05
1.5273357e-05 9.639514e-06 3.2161013e-06 1.1018539e-06 2.7189358e-07 4.4345732e-08 4.9642903e-09 1.4923283e-12
5.2106783e-18 2.4257032e-10 3.2283503e-09 4.3007205e-07 1.2955334e-06 3.9826436e-06 7.189531e-06 1.2866931e-05
1.942274e-05 2.584856e-05 3.2373722e-05 3.4340876e-05 3.964269e-05 4.2522057e-05 4.2893542e-05 4.5612236e-05
4.478359e-05 3.8863174e-05 3.0445875e-05 2.03366e-05 1.554764e-05 9.156105e-06 3.6401798e-06 1.284877e-06
3.0444275e-07 1.2869197e-07 1.1315546e-08 5.411044e-14 3.5697695e-13 1.3433128e-11 5.6553667e-08 5.021309e-07
00000000: 0000 0000 0000 0000 0000 0000 0000 0000
00000010: 0000 0000 0000 0000 0000 0000 0000 0000
00000020: 0000 0000 0000 0000 0000 0000 0000 0000
00000030: 4849 7f29 bbff 982a 0000 0000 0000 0000
00000040: 0000 0000 0000 0000 0000 0000 0000 0000
00000050: 0000 0000 0000 0000 0000 0000 0000 0000
00000060: 0000 0000 0000 0000 0000 0000 0000 0000
00000070: 0000 0000 0000 0000 0000 0000 0000 0000
00000080: 0000 0000 596b 0227 fa50 112c aaf5 512d
00000090: 19b4 352d daf1 902b b3e2 532b 46ba 9a2a
000000a0: 0a61 3b2d bea3 0b2d f8e3 0f2d 5aac 6e2d
000000b0: 6fa0 c32c 5828 fb2b 9c57 c82a da96 5b28
000000c0: 0360 8428 6cb0 f924 0000 0000 0000 0000
000000d0: 0000 0000 0000 0000 0000 0000 0000 0000
000000e0: 0000 0000 0000 0000 0000 0000 2c13 f628
000000f0: 1267 8529 aadf 6029 92ce ac2c 0eb5 ad2d
00000100: 09fb 6f30 45d7 4332 9faa 1832 b079 3131
00000110: 9eea 8932 f9a4 4e33 0ccd 2933 fb5d 1934
00000120: 146a 4734 04c5 8633 9f46 c433 a965 e033
00000130: 008a ad33 351c 2733 a932 4432 799b 9131
00000140: c198 8629 0000 0000 0000 0000 0000 0000
00000150: 0000 0000 0000 0000 9bc1 ed2f f00c e72d
00000160: bcd3 df2f ca27 3531 d02b a831 15dd b833
00000170: 7727 9e34 354c 6d34 8c28 6a35 565d b635
00000180: 07d4 0636 5b9e 6936 512f 7b36 ac46 4136
00000190: 5a2b 2536 3111 1636 52dc ad35 82ee 7235
000001a0: d162 4a34 e252 f133 97e2 6734 f37a 0534
000001b0: 5b18 0e32 3ae4 2130 bc3e 5227 0000 0000
000001c0: 0000 0000 d663 0423 986d af31 272d b330
000001d0: e5bb 8c32 2156 b334 652e 4735 b74f c835
000001e0: adb8 3736 c4fb 9436 503f d536 241d 1637
000001f0: dbaf 6c37 04de 9037 a1d3 a637 a82e a137
00000200: 7167 8f37 dbbf 6437 fd50 1637 d424 a836
00000210: c28c 6e36 fbc8 2b36 c3c2 e135 26b9 4035
00000220: 324e 0034 56d1 5833 dfab fb29 845a 9226
00000230: 0000 0000 0000 0000 2a08 dd2e cbe7 f931
00000240: b160 5f33 ef0a 4535 1727 ee35 c9b4 a636
00000250: 9ec1 0737 7b7b 5837 be6e 9a37 ac9c e037
00000260: 9e03 1838 2598 2d38 64ea 3b38 2886 3438
00000270: 2602 2838 b87c 0138 3a21 b937 3ddb 7737
00000280: f63f 2b37 b466 c936 5cff 0f36 8d68 6b34
00000290: 05d1 8533 68c2 2734 aed3 ea32 68ee 2128
000002a0: 0000 0000 88e5 9629 1bc7 dd30 6d89 7233
000002b0: 2de6 da34 f1e3 ea35 6fa6 9f36 2d4d 2437
000002c0: c3c8 7537 20e8 c937 e188 0538 359d 2438
000002d0: 148a 4438 f126 5938 85b3 5b38 b64e 5438
000002e0: ec65 4638 d34d 2538 a41b eb37 9b8f a637
000002f0: 01cf 5a37 348e f336 f181 1c36 3bbd 0735
00000300: e370 1134 a7a4 af33 4733 2630 36d8 502b
00000310: 7f3f ba20 23ae 582f eaca ad30 363c 4534
00000320: 769b 8435 209e 5636 0713 e136 7a8b 4b37
00000330: 84ae a637 aed3 e737 edbe 1238 fddd 2e38
00000340: b97e 3e38 e5bb 4a38 9917 4c38 fec4 4f38
00000350: cadc 4a38 5808 2a38 fd73 0338 f160 b637
00000360: 491f 8037 66b9 2137 33d4 5736 69e3 9335
00000370: c5f8 9134 a676 3e33 5c92 aa31 cb06 d22b
00000380: 773d c022 bd5a 852f bdd9 5d31 a7e4 e634
00000390: 30e2 ad35 a6a2 8536 9a3d f136 0cdf 5737
000003a0: 04ee a237 5cd5 d837 05c9 0738 3c09 1038
000003b0: 0446 2638 b659 3238 97e8 3338 c44f 3f38
000003c0: 03d6 3b38 0401 2338 0566 ff37 8498 aa37
000003d0: 4d6c 8237 2c9d 1937 d049 7436 0a74 ac35
000003e0: 4b72 a334 942e 0a34 4c66 4232 17b1 7329
000003f0: cdf5 c82a 6e51 6c2d 6ae5 7233 2cca 0635

exp_avg f4 [32]
0.0022676503 0.00044455385 0.0030356636 -0.002023637 -0.003563824 0.0036946624 -0.0044843517 0.0037921853
0.0034643416 -0.0017518599 6e-45 -0.001998521 -0.0029599373 0.0002588227 0.004502415 -2.4148176e-05
0.0003459875 0.0010444187 -0.004236254 0.004866167 0.0054416265 0.0043761926 -0.007496605 -0.0013458293
-0.0035342695 6e-45 -0.0014133798 0.0009995839 -0.00075985095 0.0064241844 -0.0028954786 0.0015295368
00000000: dc9c 143b 0213 e939 fcf1 463b ff9e 04bb
00000010: 0c8f 69bb 2622 723b 78f1 92bb 5086 783b
00000020: 020a 633b aa9e e5ba 0400 0000 9ef9 02bb
00000030: 82fb 41bb 98b2 8739 ff88 933b d091 cab7
00000040: a865 b539 e0e4 883a 46d0 8abb 5e74 9f3b
00000050: ac4f b23b 2a66 8f3b 15a6 f5bb 8a66 b0ba
00000060: 349f 67bb 0400 0000 2841 b9ba 7804 833a
00000070: bc30 47ba f781 d23b 12c2 3dbb bd7a c83a

exp_avg_sq f4 [32]
0.00010206719 0.00016607245 8.266959e-05 9.4060146e-05 8.095427e-05 3.512717e-05 9.492092e-05 5.219143e-05
0.00010505939 8.652977e-05 5.459074e-13 9.642622e-05 6.1393104e-05 3.5791338e-05 3.655082e-05 0.00012277023
4.9772192e-05 8.375019e-05 0.00011396673 5.5924378e-05 0.00011932866 8.9175315e-05 0.00012560116 0.00013198087
6.475582e-05 3.4135546e-12 0.00016328314 5.439019e-05 0.00017535767 0.00022949486 6.119728e-05 7.538068e-05
00000000: e80c d638 bc23 2e39 e65e ad38 2842 c538
00000010: fec5 a938 8355 1338 4810 c738 1fe8 5a38
00000020: 5553 dc38 5177 b538 c6a8 192b 6f38 ca38
00000030: 2cc0 8038 a81e 1638 254e 1938 e2bb 0039
00000040: 7cc2 5038 0aa3 af38 6c01 ef38 5890 6a38
00000050: 1640 fa38 a203 bb38 ceb3 0339 5864 0a39
00000060: 84cd 8738 2235 702c fc36 2b39 0621 6438
00000070: 37e0 3739 8fa4 7039 0a57 8038 b215 9e38

exp_avg f4 [16, 32]
-0.009867875 0.0003302365 -0.006869709 0.0038969663 0.006521742 -0.012828096 0.0051192725 -0.016269034
0.0034706509 -0.0023193639 6e-45 0.003911101 -0.002364568 -0.005428884 -0.010030977 -0.002153949
-0.0046105543 -0.012339106 0.0047980156 -0.004728498 0.0005107329 -0.011817981 -0.001574637 0.004051929
-0.00195578 -6e-45 -0.0025906311 -0.015321733 -0.007922147 -0.0047922805 -0.0031899658 -0.014854977
0.0049652993 0.0010346876 0.014203224 0.0044457987 -0.0011140315 0.007248614 0.0025038975 0.013211476
-0.0006371605 0.0040930896 6e-45 0.003198493 0.007338644 0.0071334997 0.0021972966 0.0020950672
0.010814423 0.0079434505 -0.0042678392 -0.0006151354 0.001108182 0.01351439 0.00096841727 -0.001043383
0.0077936715 0.0 -0.0023390283 0.008380843 0.0062037306 0.0031173446 0.0058275745 0.011739305
0.0010839719 0.0014283725 -0.0011958885 0.0022240174 0.0010243512 0.0002409847 -0.0036682077 0.0032763132
0.00032910425 0.0028070537 -6e-45 0.0030939865 0.0073243612 -0.0011880398 0.0011820033 0.0024546501
0.004393131 0.0021279142 0.0035104393 0.0028672507 0.0030592785 -0.0013920093 0.00089480146 0.0020836445
0.0045214244 0.0 0.0020809178 0.0006108695 0.005243276 -0.0028961333 0.004208782 0.0028970668
0.0074852197 0.0033083872 0.011211508 0.009397176 0.008443212 0.012063783 0.011515575 0.019312972
0.0058817044 0.009346221 6e-45 0.0060719713 0.019875448 0.010666734 0.010477009 0.0002909359
0.024628038 0.019245235 0.0030842696 0.004685544 0.002047735 0.0056931735 0.011025594 0.020191867
0.003237098 0.0 0.0045814198 0.015112582 0.016682394 0.0068691256 0.019794889 0.021820892
-0.0034108139 -0.00076231547 -0.003625137 -0.0017989518 6.233086e-05 -0.0063095028 -0.0033603834 -0.0043746014
-0.00035333802 -0.0013651624 6e-45 -0.0006474008 -0.0032587587 -0.005863023 -0.0058200657 -0.00019552613
-0.003049211 -0.006474795 0.0013743436 -0.004420725 0.00014230725 -0.004591393 0.00041851154 -0.0015720607
-0.000598927 6e-45 -0.001289529 -0.006957897 -0.0025894816 -0.0045231106 -0.0019867888 -0.006415966
0.011365563 -0.0008259326 0.011249669 -0.0056365905 0.0025077998 0.013696311 0.0045745317 0.021887459
-0.0029920582 0.0061497474 -6e-45 -0.005078188 0.0035617333 0.0110261105 0.013097141 -0.0019852717
0.014437969 0.02123599 -0.0015501728 0.0013615079 -0.0010092014 0.015020763 0.010773364 0.006103054
-0.0029329679 -6e-45 0.0066858293 0.011263746 0.01349667 0.012772016 0.007619231 0.014533967
-0.003972754 -0.0013756868 -0.009302453 -0.0040124715 -0.0050205383 -0.0070574526 -0.0037296596 -0.015486377
-0.004339448 -0.004749351 6e-45 -0.0009721038 -0.011390301 -0.008433546 -0.0066067628 0.000117805146
-0.016275156 -0.010719563 -0.0033086464 -0.0020939887 -0.0012385271 -0.007900354 -0.008126565 -0.010716955
-0.00047046843 0.0 -0.0047955294 -0.00951023 -0.010454158 -0.0056661307 -0.012927643 -0.012571645
0.0019523427 0.0012719156 0.0038007717 -0.00018537045 0.0064373207 -0.0020307964 0.0054111676 0.007025441
-0.0005684374 0.0038348874 -6e-45 -0.00089740846 0.005687273 0.00018120836 -0.000781144 -0.0022342375
0.01257701 0.011021185 0.003114584 -0.008319775 0.0013116009 0.0037125784 0.005196321 0.012009235
-0.0052148807 -6e-45 0.0044643274 -0.0064214095 0.007700142 0.0044656796 0.0066878004 0.0037078317
00000000: deac 21bc 9823 ad39 4c1b e1bb 3f64 7f3b
00000010: 56b4 d53b ef2c 52bc 92bf a73b a346 85bc
00000020: dc73 633b 7800 18bb 0400 0000 b128 803b
00000030: def6 1abb c8e4 b1bb f858 24bc 4529 0dbb
00000040: 2214 97bb f629 4abc ac38 9d3b 84f1 9abb
00000050: b4e2 053a 34a0 41bc 0d64 ceba 0bc6 843b
00000060: 8b2c 00bb 0400 0080 94c7 29bb 0208 7bbc
00000070: e5cb 01bc 9008 9dbb bf0e 51bb 4a62 73bc
00000080: f3b3 a23b 5b9e 873a a4b4 683c 10ae 913b
00000090: b204 92ba c885 ed3b 6e18 243b f274 583c
000000a0: 1e07 27ba 531f 863b 0400 0000 cf9d 513b
000000b0: 0279 f03b 22c0 e93b 8500 103b 654d 093b
000000c0: fa2e 313c 3f25 023c 3bd9 8bbb 0a41 21ba
000000d0: 6b40 913a 766b 5d3c 62dd 7d3a 20c2 88ba
000000e0: 0e62 ff3b 0000 0000 624a 19bb ce4f 093c
000000f0: aa48 cb3b 5d4c 4c3b 3df5 be3b 3756 403c
00000100: 1014 8e3a 3a38 bb3a 5cbf 9cba d2c0 113b
00000110: 8643 863a d6b0 7c39 5066 70bb 6ab7 563b
00000120: a08b ac39 8cf6 373b 0400 0080 7bc4 4a3b
00000130: 3201 f03b 00b8 9bba 73ed 9a3a 32de 203b
00000140: 41f4 8f3b 7a74 0b3b 660f 663b 7ce8 3b3b
00000150: 2d7e 483b 1574 b6ba 1c91 6a3a c18d 083b
00000160: 7528 943b 0000 0000 0260 083b c222 203a
00000170: c9cf ab3b 0ecd 3dbb d3e9 893b b7dc 3d3b
00000180: 9346 f53b 87d1 583b 79b0 373c 9df6 193c
00000190: 6655 0a3c 2ca7 453c d3ab 3c3c 3d36 9e3c
000001a0: 50bb c03b e420 193c 0400 0000 63f7 c63b
000001b0: d6d1 a23c 86c3 2e3c c3a7 2b3c c188 9839
000001c0: bdc0 c93c 2fa8 9d3c 7521 4a3b 3189 993b
000001d0: 4b33 063b cd8d ba3b b1a4 343c 6a69 a53c
000001e0: 7e25 543b 0000 0000 bc1f 963b c39a 773c
000001f0: 84a9 883c 6716 e13b e428 a23c bac1 b23c
00000200: f687 5fbb 20d6 47ba b593 6dbb ceca ebba
00000210: a0b7 8238 f2bf cebb e139 5cbb d158 8fbb
00000220: 3a40 b9b9 40ef b2ba 0400 0000 55b6 29ba
00000230: e690 55bb 9a1e c0bb 40b6 bebb 2506 4db9
00000240: 46d5 47bb 842a d4bb 5223 b43a bbdb 90bb
00000250: 5038 1539 6573 96bb ab6b db39 9b0d ceba
00000260: 5001 1dba 0400 0000 6a05 a9ba 12ff e3bb
00000270: 4bb4 29bb 9a36 94bb c934 02bb 063d d2bb
00000280: a036 3a3c 6683 58ba 8850 383c 26b3 b8bb
00000290: e659 243b 7e66 603c f4e5 953b 544d b33c
000002a0: 6816 44bb d283 c93b 0400 0080 ee66 a6bb
000002b0: f86b 693b dca6 343c 6495 563c 551b 02bb
000002c0: 3b8d 6c3c 19f7 ad3c 2b2f cbba a074 b23a
000002d0: 2e47 84ba a519 763c c482 303c 21fc c73b
000002e0: 0937 40bb 0400 0080 cd14 db3b 938b 383c
000002f0: 2321 5d3c b841 513c beaa f93b e01f 6e3c
00000300: e02d 82bb 6450 b4ba 5169 18bc 0d7b 83bb
00000310: 5483 a4bb 3442 e7bb 4e6d 74bb 93ba 7dbc
00000320: ee31 8ebb 72a0 9bbb 0400 0000 c8d4 7eba
00000330: 639e 3abc db2c 0abc 8b7d d8bb 280e f738
00000340: 7a53 85bc 1ba1 2fbc e0d5 58bb 4d3b 09bb
00000350: 1356 a2ba 7d70 01bc 4925 05bc 2b96 2fbc
00000360: 34a9 f6b9 0000 0000 d123 9dbb ccd0 1bbc
00000370: eb47 2bbc f3aa b9bb 77ce 53bc 4df9 4dbc
00000380: c0e5 ff3a 68b6 a63a 5e16 793b 0060 42b9
00000390: 29f0 d23b 1c17 05bb 2a50 b13b ac35 e63b
000003a0: 3003 15ba bc52 7b3b 0400 0080 1040 6bba
000003b0: 4e5c ba3b c002 3e39 b0c5 4cba 496c 12bb
000003c0: ce0f 4e3c 3392 343c 0c1e 4c3b aa4f 08bc
000003d0: 06ea ab3a bb4e 733b e645 aa3b 62c2 443c
000003e0: 97e1 aabb 0400 0080 7e49 923b b06a d2bb
000003f0: 7951 fc3b d654 923b 5625 db3b 18ff 723b

exp_avg_sq f4 [16, 32]
0.0003712958 8.861935e-05 0.0018693343 0.0016961831 0.0015440057 0.0017254975 0.0027661063 0.0022269923
0.000265844 0.0010116408 7.288193e-15 0.0007646115 0.0029891457 0.004033839 0.0018651999 0.00023404993
0.0024580178 0.0013481978 0.00028052932 0.0009350836 0.00018083442 0.00097293576 0.0017724691 0.0018360502
0.0010189301 7.930049e-14 0.0008666867 0.0031620897 0.00090616604 0.00024207497 0.002497795 0.0020341172
0.00030205268 0.00020260095 0.0012009882 0.0013174015 0.000917785 0.001258381 0.0006123482 0.0015112387
0.0004870091 0.00028695798 1.3367235e-17 0.00065065146 0.0025277047 0.0025432555 0.0014019221 0.00027222242
0.0019441234 0.0009409531 0.00032414365 0.0014236833 0.00035170533 0.0009510888 0.0004071114 0.0007139375
0.00044667517 0.0 0.00049051526 0.0021804308 0.00062696944 0.00048304797 0.0011820697 0.0017908417
0.00017222464 0.0001737831 0.0008121731 0.0008268502 0.00049006555 0.0007429327 0.0003942585 0.0009387473
0.00027146938 0.00019211067 2.7906337e-16 0.00032405058 0.0016265485 0.0018925227 0.0007706138 0.00031053365
0.0011498779 0.0004746273 0.00018477 0.00089640886 0.00017779559 0.000613501 0.00030042755 0.00052335876
0.00026406668 0.0 0.00033379358 0.001559154 0.00030189817 0.00027075125 0.00077799306 0.0008859367
0.0002719192 0.00020773536 0.0012114083 0.0012155661 0.0011262806 0.0011019015 0.0017465241 0.0015648833
0.00025455942 0.0006091231 4.529949e-16 0.00056586607 0.0020686602 0.0027693913 0.0012940895 0.00015809618
0.0018606286 0.00087458343 0.00036590066 0.00094304397 0.0001298523 0.0005942531 0.0014183591 0.0016147736
0.00069235516 0.0 0.00060827495 0.0023635142 0.00059502496 0.00015915713 0.0016932744 0.0014210127
0.00019686788 0.00013812962 0.00075853005 0.0010938422 0.00071130856 0.00083525176 0.00048001617 0.0009421506
0.00043488716 0.0001353623 4.887696e-16 0.0003018828 0.0017432678 0.0022506162 0.0010632633 0.000123419
0.0010555385 0.00044111774 0.0002779199 0.0010475384 0.00021464106 0.00050784677 0.0004135542 0.00052699464
0.00019469451 3.2423856e-15 0.00039768658 0.0017642064 0.00036125613 0.00035161895 0.0010082712 0.0009452359
0.00042365422 0.00013549114 0.001151625 0.00103614 0.0007224164 0.0012103363 0.00092257094 0.0016802376
0.00031723152 0.00054091454 1.4271583e-15 0.0006245663 0.0021559405 0.0021774769 0.0011162272 0.00019988627
0.001964435 0.0012034004 0.00018974734 0.00080311793 0.0001767721 0.0007987326 0.0005151611 0.0010563988
0.0005529917 9.7040675e-14 0.00036660716 0.0021845615 0.00080133806 0.00028367582 0.0012796866 0.0019947342
0.0001541278 0.00012720976 0.00067210756 0.000911421 0.00063538615 0.00069738395 0.0005501918 0.00076812075
0.00028980835 0.00015784394 3.6373163e-17 0.00027558827 0.0014098609 0.0018436203 0.0008691504 0.000112769856
0.00092993845 0.00042205676 0.00023445157 0.0008095842 0.00013413609 0.0003946443 0.0003860586 0.0005976752
0.00022201338 0.0 0.0003690992 0.0014593981 0.00032496577 0.00023897817 0.0009181482 0.0008286765
0.0002919428 0.00020112858 0.0010938168 0.0007706032 0.000606413 0.0010589933 0.0006662828 0.0015695862
0.00026015105 0.00048190707 1.3291479e-15 0.00048961444 0.0018008791 0.0017294998 0.0010034251 0.0004258891
0.0019075343 0.0011006722 0.00020497205 0.00088285946 0.00024177172 0.000908912 0.00062613824 0.0008038556
0.00045694062 1.3604624e-13 0.0003876968 0.0017635076 0.0005308887 0.00020830751 0.00086271524 0.0015853712
00000000: 7baa c239 27d9 b938 7304 f53a 7652 de3a
00000010: 3c60 ca3a 172a e23a 9047 353b bbf2 113b
00000020: fa60 8b39 0899 843a dc4a 0328 3670 483a
00000030: 8be5 433b 4b2e 843b b979 f43a 4d6b 7539
00000040: b216 213b 03b6 b03a 0214 9339 6620 753a
00000050: 5f9e 3d39 9d0c 7f3a 3252 e83a 9fa7 f03a
00000060: 9f8d 853a 9f91 b229 5c32 633a 103b 4f3b
00000070: c68b 6d3a 81d5 7d39 0cb2 233b d34e 053b
00000080: d35c 9e39 4771 5439 7a6a 9d3a a9ac ac3a
00000090: 8297 703a 42f0 a43a fe85 203a c214 c63a
000000a0: 4155 ff39 d972 9639 fc94 7623 7b90 2a3a
000000b0: d9a7 253b bfac 263b b3c0 b73a 13b9 8e39
000000c0: f5d1 fe3a 4baa 763a d3f1 a939 e29a ba3a
000000d0: 1765 b839 7d52 793a 9171 d539 8927 3b3a
000000e0: ba2f ea39 0000 0000 ec95 003a 8fe5 0e3b
000000f0: 355b 243a 9a41 fd39 adef 9a3a adba ea3a
00000100: 3397 3439 8c39 3639 04e8 543a fac0 583a
00000110: be77 003a 5fc1 423a 7bb4 ce39 4416 763a
00000120: 0154 8e39 5171 4939 7cde a025 55e5 a939
00000130: e931 d53a 860e f83a 0403 4a3a 1fcf a239
00000140: 80b7 963a 66d7 f839 d2be 4139 fbfc 6a3a
00000150: a46e 3a39 5bd3 203a b482 9d39 0332 093a
00000160: 6e72 8a39 0000 0000 0401 af39 875c cc3a
00000170: 1648 9e39 9ef3 8d39 3bf2 4b3a 353e 683a
00000180: 6190 8e39 89d3 5939 1ec8 9e3a a153 9f3a
00000190: b59f 933a ae6d 903a a0eb e43a c51c cd3a
000001a0: 6376 8539 8fad 1f3a 2091 0226 a156 143a
000001b0: 5c92 073b ad7e 353b 709e a93a 9fc6 2539
000001c0: 56e0 f33a 4d44 653a 5bd6 bf39 9c36 773a
000001d0: f628 0839 a7c7 1b3a 3ce8 b93a d0a6 d33a
000001e0: 2b7f 353a 0000 0000 a474 1f3a 30e5 1a3b
000001f0: 73fb 1b3a 6be3 2639 dcf0 dd3a 4641 ba3a
00000200: 526e 4e39 e3d6 1039 17d8 463a 415f 8f3a
00000210: 1c77 3a3a ccf4 5a3a aeaa fb39 a8fa 763a
00000220: 9101 e439 0af0 0d39 d5e0 0c26 0646 9e39
00000230: 5c7e e43a 137f 133b 325d 8b3a 096a 0139
00000240: ff59 8a3a d245 e739 c7b5 9139 8e4d 893a
00000250: 4511 6139 0521 053a 4ed2 d839 0326 0a3a
00000260: e926 4c39 75a3 6927 9780 d039 f23c e73a
00000270: fa66 bd39 7f59 b839 f827 843a b5c9 773a
00000280: e81d de39 a012 0e39 1ff2 963a 17cf 873a
00000290: 8b60 3d3a 26a4 9e3a b0d8 713a 6b3b dc3a
000002a0: 1852 a639 29cc 0d3a d9ac cd26 efb9 233a
000002b0: ae4a 0d3b 00b4 0e3b 5f4e 923a 9098 5139
000002c0: c0bd 003b 6bbb 9d3a eaf6 4639 5588 523a
000002d0: e65b 3939 0a62 513a e00b 073a dd76 8a3a
000002e0: a5f6 103a 2484 da29 2e35 c039 dc2a 0f3b
000002f0: e310 523a 53ba 9439 28bb a73a 16ba 023b
00000300: 5e9d 2139 9c63 0539 6030 303a 6eec 6e3a
00000310: 0b90 263a a5d0 363a bf3a 103a b65b 493a
00000320: 6bf1 9739 e982 2539 dabd 2724 d57c 9039
00000330: 15cb b83a a2a5 f13a b2d7 633a db7e ec38
00000340: 1dc7 733a 8047 dd39 1dd7 7539 473a 543a
00000350: e2a6 0c39 43e8 ce39 e867 ca39 4ead 1c3a
00000360: 43cc 6839 0000 0000 a883 c139 4649 bf3a
00000370: 2b60 aa39 3796 7a39 e2af 703a 8a3b 593a
00000380: e60f 9939 0be6 5239 675e 8f3a 4e02 4a3a
00000390: b0f7 1e3a ebcd 8a3a 7ba9 2e3a 93ba cd3a
000003a0: e264 8839 79a8 fc39 e78c bf26 7859 003a
000003b0: 7a0b ec3a 62b0 e23a 5c85 833a de49 df39
000003c0: 3b06 fa3a 6e44 903a c4ed 5639 b26f 673a
000003d0: 1a84 7d39 0d44 6e3a 6d23 243a d6b9 523a
000003e0: 8891 ef39 a92c 192a c943 cb39 7f25 e73a
000003f0: 562b 0b3a 1f6d 5a39 d727 623a 3bcc cf3a

exp_avg f4 [16]
-0.00051898987 0.0011198375 0.0004871149 0.0047707004 -0.0005781989 0.0029987711 -0.0033766804 0.0022506244
-0.0043867216 -0.0028174494 0.0030564312 1.2536882e-05 -0.0015476132 -0.0009818452 0.0013536902 0.0058941646
00000000: d20c 08ba 83c7 923a 7563 ff39 8953 9c3b
00000010: 4592 17ba 0887 443b 4c4b 5dbb 367f 133b
00000020: 7dbe 8fbb f5a4 38bb 684e 483b 8055 5237
00000030: 48d9 caba 42b1 80ba 4e6e b13a d623 c13b

exp_avg_sq f4 [16]
0.00012763521 8.8374305e-05 5.6709363e-05 9.510788e-05 5.683704e-05 8.879015e-05 5.1928957e-05 7.750647e-05
7.396362e-05 8.420906e-05 0.000108047214 6.760901e-05 7.2465795e-05 7.346281e-05 7.06992e-05 9.321369e-05
00000000: d1d5 0539 9855 b938 37db 6d38 a774 c738
00000010: 4f64 6e38 d934 ba38 4bce 5938 f88a a238
00000020: eb1c 9b38 6599 b038 6897 e238 50c9 8d38
00000030: c7f8 9738 0c10 9a38 5844 9438 b87b c338

exp_avg f4 [10, 16]
0.008667385 0.014591966 0.014278722 0.014736096 0.015951524 0.0073578204 0.00788665 0.010336073
0.0108206 0.0058120163 0.009672158 0.016408443 0.014049059 0.017126717 0.010814154 0.01933134
-0.011173696 -0.009404538 -0.0034084083 -0.015156368 0.000679784 -0.00974091 -0.01244927 -0.008572
-0.00679687 -0.0031830622 -0.009783813 -0.0004476215 -0.006748631 -0.010028492 -0.012324095 -0.007866321
-0.0013015696 -0.0052760923 -0.002484411 0.0008548121 -0.0007734712 -0.0005624599 -0.004318152 0.0005845963
-0.00371547 -0.0049787075 -0.000264461 0.0004184714 -0.004138373 -0.001108108 -0.00082531036 -0.003058022
0.039068237 0.013739912 0.039165635 0.03890183 0.017711325 0.026613764 0.029355729 0.04353285
0.01698025 0.036755357 0.018020019 -0.0043392805 0.0025877045 0.032198288 0.054709475 0.041954413
-0.0124774985 -0.017506627 -0.024783904 -0.012939649 -0.019202964 -0.014585196 -0.024030175 -0.0100304475
-0.025380284 -0.03668207 -0.0048384466 0.0024211728 -0.012178191 -0.037041217 -0.013852206 0.0038557868
0.0053038765 0.005161328 0.010967238 0.00824045 0.008424794 0.0029982645 0.008116982 0.007583063
0.002530083 0.009631799 0.004132637 0.001559574 0.0016333314 0.012304718 0.009442436 -0.00021903869
-0.003150353 -0.006803341 -0.011540025 -0.011964905 -0.013457946 -0.0037532116 -0.0006934302 -0.0107155405
-0.006481966 0.0016524801 -0.0059674587 -0.0145591255 -0.008241229 -0.015460436 -0.006283963 -0.0097434
-0.00227869 -0.0016988595 -0.0017538253 -0.006102779 -0.0012049405 -0.0031944932 0.00022726739 0.0015563879
0.0014164371 -0.0023879549 -4.9496884e-06 -0.00053019164 0.0023992842 0.005604694 -0.0065875994 -0.01076065
0.016701955 0.0123787755 0.015893394 0.016342722 0.0050646267 0.012786674 0.019259306 0.0071775685
0.013552533 0.019556006 0.010100466 0.0021314397 0.007043525 0.017030267 0.019983383 0.014584335
-0.03935962 -0.005182488 -0.036334395 -0.032912165 -0.013192706 -0.017920222 -0.023354884 -0.041452512
-0.002925285 -0.026175855 -0.02106614 -0.0030628503 0.0035935408 -0.020626403 -0.05507624 -0.04807839
00000000: a601 0e3c 2413 6f3c 4df1 693c ab6f 713c
00000010: c5ac 823c df19 f13b 0237 013c a258 293c
00000020: e348 313c ba72 be3b f977 1e3c 006b 863c
00000030: 062e 663c 544d 8c3c d92d 313c c25c 9e3c
00000040: e111 37bc 7e15 1abc 9a5f 5fbb 6a52 78bc
00000050: 8833 323a 5698 1fbc 06f8 4bbc 9371 0cbc
00000060: 47b8 debb ec9a 50bb 494c 20bc beae eab9
00000070: 9f23 ddbb 8b4e 24bc 00eb 49bc bee1 00bc
00000080: 6e99 aaba 12e3 acbb 80d1 22bb 7815 603a
00000090: c6c2 4aba 0c72 13ba 497f 8dbb 983f 193a
000000a0: 3e7f 73bb 6d24 a3bb 5ba7 8ab9 4866 db39
000000b0: 309b 87bb ef3d 91ba a459 58ba 1869 48bb
000000c0: 0406 203d 5e1d 613c 256c 203d 8657 1f3d
000000d0: 5717 913c 1c05 da3c 6d7b f03c 804f 323d
000000e0: 2a1a 8b3c c98c 163d b89e 933c 8630 8ebb
000000f0: 7a96 293b 5ae2 033d 0b17 603d 64d8 2b3d
00000100: 6c6e 4cbc 0f6a 8fbc 9d07 cbbc d200 54bc
00000110: 894f 9dbc bff6 6ebc eeda c4bc bf56 24bc
00000120: 50ea cfbc f03f 16bd d58b 9ebb 8aac 1e3b
00000130: 0987 47bc 88b8 17bd 5df4 62bc 5eb1 7c3b
00000140: 24cc ad3b 5b20 a93b eeaf 333c f402 073c
00000150: 2608 0a3c 887e 443b 17fd 043c 587b f83b
00000160: c0cf 253b b1ce 1d3c 126b 873b 9f6a cc3a
00000170: 8215 d63a ba99 493c 72b4 1a3c c0ad 65b9
00000180: 2776 4ebb 90ee debb 5f12 3dbc 7308 44bc
00000190: b77e 5cbc 71f8 75bb 50c7 35ba 3c90 2fbc
000001a0: ac66 d4bb 0898 d83a ac8a c3bb 6689 6ebc
000001b0: 3806 07bc c54d 7dbc b4e9 cdbb c8a2 1fbc
000001c0: 1356 15bb 44ac deba 9de0 e5ba d2f9 c7bb
000001d0: 18ef 9dba b45a 51bb a04e 6e39 b6ff cb3a
000001e0: bea7 b93a 3c7f 1cbb 8015 a6b6 8ffc 0aba
000001f0: 4f3d 1d3b 95a7 b73b cadc d7bb 704d 30bc
00000200: 8ad2 883c 59d0 4a3c dd32 823c 2ce1 853c
00000210: 2bf5 a53b 337f 513c b1c5 9d3c cf31 eb3b
00000220: 720b 5e3c eb33 a03c 6d7c 253c a0af 0b3b
00000230: 5fcd e63b 0f83 8b3c 31b4 a33c 22f3 6e3c
00000240: 8e37 21bd dcd1 a9bb 60d3 14bd e8ce 06bd
00000250: 3826 58bc 6ecd 92bc be52 bfbc 1cca 29bd
00000260: 23b6 3fbb bf6e d6bc e692 acbc 1aba 48bb
00000270: 9c81 6b3b b4f8 a8bc a097 61bd d9ed 44bd
