Machine Learning With PyTorch and Scikit-Learn/lightning_logs/version_1/checkpoints/epoch=14-step=12900.ckpt (torch, 317804 bytes, 18 tensors)

model.1.weight f4 [32, 784]
00000000: 56c0 963c 7a22 81bc 94df e2bb ee52 893c
00000010: 02b8 09bd cc75 af3c e4c1 f0bb 0cd8 943c
00000020: 88b0 a23b 704b 8fbb b84b 223c e0ed e63a
00000030: 2015 64bc 227d 27bd f0a5 2abb 20b7 52bb
00000040: 38a0 a93b 009a 15b9 96c1 ff3c 3817 363c
00000050: 2ee9 59bc acb3 b0bc 8028 c4bb 5c65 7cbc
00000060: 1882 3bbc 0024 e03a f268 ae3c f805 9f3c
00000070: 7200 0fbd fc5e b53c c077 233c 97c2 0a3d
00000080: 5a1d c13c f64e a9bd 0564 19be d6ca ffbd
00000090: d70c 15be f517 18be b0de 36bd b418 aabd
000000a0: 4bd8 0dbe 6ccb 84be a2ab a03d f2bf 983d
000000b0: 0d34 e1bd ae84 0abe 3612 7dbe 6e49 08be
000000c0: 96e7 03be acfe 72bd 2aa3 0cbd 237e 8bbc
000000d0: 5cc2 9e3c 243c 0ebc 33b5 113d 9a85 ea3c
000000e0: 2030 dbba 5849 c3bc 3a2a b23c ceae 90be
000000f0: ab1b c5be 5d70 4ebe 75c4 c7bd 39ee a8be
00000100: 93f4 69be 668e 1fbd 959b 1b3d fe1e 36be
00000110: 326b c1be fd5d 9fbe 80f0 1f3d a7e1 d83e
00000120: 14e0 993e a998 0bbe 1233 e8bd ea97 4d3d
00000130: 697a a33d da88 103d 60fd e73d 55ee 7c3e
00000140: 3b10 b6bd 6ebf dcbc 2057 0e3b d46c c7bb
00000150: 90d5 ab3c 4570 a9bc e05a a33e 731d 253e
00000160: e263 a8be c710 ae3c 2c06 f63c 4573 4a3e
00000170: 8459 fb3e e05f 293e ff44 fb3d 2c22 d73c
00000180: 968e 193e 33ae 173d 4a46 7f3d 9b37 3f3e
00000190: ec7a 423e 03b0 fdbc cb56 0dbe 95e3 80be
000001a0: e0fc 2ebe 4c42 6ebe 43f2 55be 6aa4 d1be
000001b0: 6dd3 0bbd c880 b6be a06a 8b3c ec89 da3c
000001c0: d3b5 0a3d 5d26 8b3d f155 d53e 70c4 ee3e
000001d0: 31b8 d53e da03 e03e d722 1e3e 8f07 5f3e
000001e0: cc1a a93e ae80 893e 688f 923e f9f7 183e
000001f0: f49b 4e3e 1537 0d3e 57df 883d 063a 533d
00000200: edd2 253d 6189 f4bd 77d1 053d ba95 d3bd
00000210: 9603 f5bd 790c d53d 689c 05bc 48fa cbbe
00000220: 4710 c7bc 678e edbb 7e5e 4c3d 0dd8 16bd
00000230: f00f 86bc 6846 88bb 8dca d03e a01d 1b3e
00000240: f831 1b3e d343 ec3e be41 b13e 3697 843e
00000250: 1fdf 783e 3841 2e3e fe65 983d 52ed 2a3e
00000260: 045f 0e3e 6e58 5b3e 623d 153e 848f f53d
00000270: 8d47 ea3d 6e6e 0cbe faff 70bb 20b2 fcbc
00000280: 358d dfbd 44d1 9fbe 23ca e0bd 70bd 5fbe
00000290: 9b74 00be e4c8 febd 87c7 5abe af50 ea3b
000002a0: d327 e9bc 6721 6c3e cef6 1dbe d37a a93c
000002b0: 37c2 123e e067 af3e 3383 973e 03c1 093e
000002c0: c6fd 0d3e 0312 d03d d695 72bd 4ef4 c53d
000002d0: 0760 513c 7c3b f23d 48d4 843c 0c1a ae3d
000002e0: 554b c33a dd9d 5ebd 61bc b0bd 61ca 0ebe
000002f0: f1a5 b8bd 760c d6bd bcf2 a1bd 5e65 60bc
00000300: b73c f6bc 8f24 79bd 1102 7a3e 5605 8ebd
00000310: 5445 c93c 7273 133f c85a 02be 34d7 833c
00000320: bccb 5b3e 0ea2 1a3e 8964 1f3e 9672 063d
00000330: 6ead f9bc d1e5 4cbd 1b3e bfbd e4a1 a03c
00000340: c938 193c 4841 5ebd 5801 60bd 88a9 14be
00000350: 0347 33be 405c ddbd ac12 1abe fe45 1cbe
00000360: e47f ac3d 9fa9 963d b687 c3bd 7777 85be
00000370: c07d 9dbd 99ee 8b3e aee7 57be ea45 91bd
00000380: 979e 853c b550 1cbe a9dd d93c 565c da3d
00000390: 52be 4c3e 6005 153e dcb6 873d 391f f9bd
000003a0: 955d 73bd 77f0 fbbd 8dd9 5fbd 9417 0dbd
000003b0: b6a4 27be 7bc0 39be 4d1b a5bd cbca 6abd
000003c0: 780e 45be 96cb 94bd f0ce 8cbd ccd0 35be
000003d0: e76b 14be 44c4 60bd f8fe 393d 91d3 95be
000003e0: cc44 77be 278c 3bbe 6361 4ebe ec7a 2b3e
000003f0: 9304 7ebc 3d0b 53be 4978 473e b72e c53d
0.01840226 -0.01576351 -0.0069236252 0.016763177 -0.03362275 0.021418475 -0.0073473323 0.018169425
0.004964892 -0.0043730065 0.009905748 0.00176185 -0.013921052 -0.04089082 -0.0026038848 -0.0032152608
0.0051765703 -0.00014267117 0.031220239 0.011113934 -0.013300223 -0.02157005 -0.0059862733 -0.015405025
-0.011444591 0.0017100573 0.021290276 0.019412026 -0.034912534 0.022140019 0.009977281 0.03387698
0.023573566 -0.08267014 -0.1497956 -0.1248986 -0.1455568 -0.14852889 -0.044645965 -0.08305493
-0.1385204 -0.2593645 0.07845236 0.07458486 -0.10996256 -0.13527176 -0.24713978 -0.13309261
-0.12881312 -0.059324905 -0.034335293 -0.01702792 0.019379787 -0.008681331 0.035573196 0.02862816
-0.0016722716 -0.023838684 0.02174865 -0.28258365 -0.3849767 -0.2016005 -0.09754268 -0.3299425
-0.22847204 -0.03895416 0.03799017 -0.1778526 -0.37777096 -0.31126395 0.039047718 0.4235966
0.3005377 -0.13632454 -0.11337866 0.050193705 0.07982332 0.03528676 0.11327624 0.24700291
-0.088898145 -0.02694675 0.002171941 -0.0060859714 0.020975858 -0.020683417 0.3190527 0.16124515
-0.32888705 0.021248234 0.03003224 0.19770534 0.49091733 0.1654048 0.12269019 0.026261412
0.14995798 0.037031364 0.062322892 0.18673556 0.18992203 -0.030967718 -0.1380264 -0.2517363
-0.17088652 -0.23267478 -0.20893197 -0.4094575 -0.03413718 -0.35645127 0.017018616 0.026677094
0.033864807 0.067944266 0.4166713 0.46634245 0.4174209 0.43752939 0.15442978 0.21780227
0.33028257 0.26855987 0.28625035 0.14938344 0.20176679 0.13790543 0.06683224 0.051569007
0.040484358 -0.119402654 0.032670464 -0.103312925 -0.119635746 0.104027696 -0.008154966 -0.39839387
-0.024299754 -0.0072496417 0.049894802 -0.036827136 -0.016365021 -0.0041587837 0.40779534 0.1514802
0.1515578 0.46145496 0.3462047 0.25896615 0.24303864 0.17017066 0.074413285 0.16692093
0.13903433 0.21420452 0.14574197 0.11990264 0.114394285 -0.13714 -0.0036773668 -0.030846655
-0.10915605 -0.31214345 -0.109760545 -0.21849608 -0.12544481 -0.124406606 -0.21365176 0.0071507315
-0.028461372 0.23059617 -0.1542618 0.02068845 0.143319 0.34258938 0.29592285 0.13452534
0.13866338 0.101596855 -0.059224926 0.09665738 0.012779242 0.11827752 0.016214505 0.08501062
0.001489977 -0.05434977 -0.086296804 -0.13944389 -0.09016026 -0.104515955 -0.07907626 -0.013696043
-0.030058248 -0.06082588 0.24414851 -0.069346115 0.024569191 0.5759803 -0.12729943 0.016093828
0.21464437 0.15100881 0.15565695 0.03282412 -0.030478206 -0.050023858 -0.093380176 0.019608445
0.009351918 -0.054261476 -0.05468878 -0.14517796 -0.17507558 -0.10808611 -0.15046185 -0.15261075
0.08422831 0.073565714 -0.09547369 -0.26067707 -0.076900005 0.27330473 -0.21084473 -0.07093413
0.016310973 -0.15265162 0.026594954 0.10662143 0.19994476 0.14552832 0.066266745 -0.121641584
-0.05941542 -0.123017244 -0.054650832 -0.034446314 -0.16371426 -0.18139832 -0.08061848 -0.057322305
-0.192438 -0.072653934 -0.06875408 -0.17755431 -0.14494286 -0.054874673 0.045409173 -0.29262975
-0.24147338 -0.18315183 -0.20154338 0.1674611 -0.01550402 -0.20609756 0.19479479 0.09628051

model.1.bias f4 [32]
00000000: f3a5 39bc 83a1 f13d 7c61 93be 1244 3d3d
00000010: adff a53e d345 8e3e 1ff4 8f3e 5004 a4bd
00000020: 58f5 243d 8ba5 853d def0 693c 39fb 8a3e
00000030: f89e e53e e4ee 743e 1c21 ef3d e51d 67be
00000040: 3570 473e a011 313c 504d 953d c83d d33e
00000050: 0276 e83d 75a8 7fba fb72 673e 30bb 58bc
00000060: 1fa6 35bd f359 9ebc a969 7cbe 3a74 c03d
00000070: 15a7 f53d d9f6 833e a603 be3c e36f ddbd
-0.011331069 0.11798384 -0.28785312 0.046207495 0.32421628 0.27787647 0.28115937 -0.08008635
0.04027304 0.065257154 0.014278619 0.27144793 0.44847846 0.23919255 0.11676237 -0.22569998
0.19476397 0.010807425 0.07290137 0.41258073 0.11350633 -0.000975258 0.22602455 -0.013228223
-0.04434788 -0.01933 -0.24649681 0.093971685 0.11994759 0.25774267 0.0231951 -0.10812356

model.3.weight f4 [16, 32]
00000000: 89b8 8abe fc57 88bf b0fb 873e 7e52 d63e
00000010: c670 1fbe 70d5 183d a565 40bd 9e5d 423d
00000020: 33c1 dcbe 8425 ca3b 3c10 223d 8d25 433e
00000030: a756 203e b069 f63d 1589 773d e288 b0be
00000040: b38e 0abd 74f1 d73e de9e f5be 3774 9fbe
00000050: c7f4 20be 19f7 90bd e0f6 8fbe e85f 55be
00000060: f11d 5ebe e233 14be 1991 013e 8f08 c13e
00000070: 7e86 b53e 791b 51bd b7c5 393e feeb ff3e
00000080: c1dd e2be 2b0c 78be 63f1 b53e d495 b63e
00000090: bfbc 8d3e 1b50 35bb 4b42 6ebe ff86 823e
000000a0: 7ae0 713e 5080 fbbd 91f0 173e 756f 7bbc
000000b0: 2476 863e 6fb0 583e c422 8b3e 88a3 e8bd
000000c0: 8935 4d3e 8b58 d2bd 1d25 213f 2dfc ddbc
000000d0: b930 793e 2c52 02bd 2814 ddbd d039 57be
000000e0: b7bb 8dbe a448 433d eb9d 0dbf 40af 85bd
000000f0: 09c1 d43d 217c bebe ea51 673e f214 00be
00000100: dda1 b83d 988d 44bd 5408 013e 4446 91be
00000110: 98ac a43e 04bd ab3e a804 263f c351 aa3d
00000120: 3a35 21be 2c96 963e 9bdd ae3c b836 7bbd
00000130: b21e c5bd 1abd 173e 1c60 383e 997c 093d
00000140: 3345 463e 1ac7 7e3c df1a bcbe 5df5 f93d
00000150: 5bcf 3b3e 9928 78be ebe2 9cbe 17ac d2bd
00000160: 43ff acbe 20c9 003d 07d8 433f d687 a33e
00000170: b2f4 fa3e 7aab 8d3d d573 943e 3370 3abe
00000180: 295e f5be 77d1 953e e31b 703e 929c 68be
00000190: 12ca 0a3d 4fc2 a73e 6dd2 9fbe 5d8b e33d
000001a0: 7ee5 bc3e a961 c7be 193c 343d a780 3d3e
000001b0: a5a4 74be bf79 0d3e a8a8 863e cfde 2d3f
000001c0: 5d31 9abd 12f8 4e3d 71db ed3e e6fc ec3d
000001d0: deb2 643f e892 2f3f 410b 843e ffa7 023e
000001e0: 099b d43e 086f 00bd 656c eb3d 9442 1cbe
000001f0: 76b5 6ebe 9259 183f 555c 42be 1819 e03e
00000200: 8061 89be fee6 bd3e e8b2 623c d025 4f3e
00000210: 98b6 253e 812f 3fbe 7247 cfbe e59b 863d
00000220: 334d 1f3d e7de 08bf 4661 a53d 47b4 443a
00000230: bb2b b83d 84b6 853e 08e3 f13d f657 cfbe
00000240: 4d31 ccbe 8c9f cfbe e3ae e33c c420 033e
00000250: e6ff de3e 6799 ac3e 24f0 503d f270 2e3f
00000260: 102d 17bf c1e8 233e 4a6d b43e 95d9 583e
00000270: b258 a73e ebbd 023f 4d15 a63e 68dc dbbd
00000280: d4ac 8f3e 366c 173f 4f31 403d 5b60 993e
00000290: 34bb dcbe 220d e739 1cfe 7ebe b27d 163e
000002a0: 5048 d33e a933 02be 3831 94bc 7b21 2b3d
000002b0: 595b 9e3e 92b1 4dbe 6faa 0b3d 3cb4 453f
000002c0: dfca d23e 397b 1bbd 6f5c 923e 6d6c 56be
000002d0: 0071 f6bd ae58 c73e 7ef4 63bd 876b 743d
000002e0: 3dd0 6bbe d364 aabd f0ca eebe f225 343d
000002f0: 54d4 02bf 4d05 f33e 59c9 a4be 4236 743e
00000300: 4245 883e b62a 9bbe 6a19 83bc 24cc 323d
00000310: 0731 083e 975c d03d 7112 c43e bf8a 5a3e
00000320: cf2a 91bd bdb1 143f 01be 103e 90d6 6b3b
00000330: 370a 393e aa23 183e a5ce 893d 2dd1 663e
00000340: 9e70 c63e 22ca 663e 872f 06be 4418 6bbe
00000350: 2d20 04bf 44da 61be 918a d73e fc89 cfbe
00000360: 17d3 e93e 1e3a c43d d405 05be 89fd 893d
00000370: 2e83 a93d 2b6f 62bf 53fb eb3d c8d6 83bc
00000380: d961 2b3f 3882 a43e 15ca dabe 1aa3 aebe
00000390: 133a ecbd 2846 8a3e 231f 3abe be35 1c3e
000003a0: b2d2 a0be 3031 cd3c 8308 90bd 3dab b23d
000003b0: e237 953e 4663 143c 30a8 c43e 7696 a53e
000003c0: 0b85 513e 1410 633e 1530 aa3d e6b1 a03e
000003d0: ae3f 543e cb16 663d c737 f9be f294 2dbe
000003e0: f621 aebe d84b 2dbb af16 2f3e 0d09 493e
000003f0: 579c 493e c871 5b3f dbce cabe a7b5 003d
-0.27093914 -1.0651851 0.2655921 0.41859812 -0.15570363 0.037312925 -0.046971936 0.04745256
-0.4311615 0.006169023 0.039566264 0.19057293 0.15658055 0.12031877 0.060433466 -0.34479433
-0.033827495 0.42176402 -0.4797277 -0.31143352 -0.15718375 -0.0707838 -0.28118038 -0.20837367
-0.21691109 -0.14472917 0.12653007 0.37701842 0.35454172 -0.05105159 0.18141828 0.49984735
-0.4430981 -0.24223392 0.35535726 0.35661185 0.27683064 -0.0027666155 -0.23267476 0.2549362
0.23620787 -0.12280333 0.14837863 -0.015346398 0.2626201 0.21161054 0.27174962 -0.11359316
0.20039953 -0.102707945 0.62947255 -0.027097786 0.24334992 -0.031816646 -0.1079486 -0.21018147
-0.27682278 0.047676697 -0.5531909 -0.06527567 0.10388381 -0.37204078 0.22589841 -0.1250799
0.09015248 -0.047986597 0.12600833 -0.2837392 0.3216293 0.33542645 0.64850855 0.08316376
-0.1574296 0.29411447 0.021345904 -0.06133148 -0.09624995 0.1481823 0.18005413 0.03356609
0.19362335 0.015550399 -0.3673925 0.122050025 0.18340819 -0.24234237 -0.30641875 -0.1028673
-0.337885 0.031441808 0.76501507 0.31939572 0.49014813 0.06917472 0.28994623 -0.18206863
-0.479234 0.29261371 0.23448138 -0.22715977 0.033884116 0.32765433 -0.3121523 0.11110566
0.3689384 -0.38941696 0.044002626 0.18506108 -0.23890932 0.13815974 0.2630055 0.67918104
-0.075289465 0.050529547 0.46456483 0.11571674 0.8933543 0.68583536 0.25789836 0.12759398
0.41524532 -0.031355888 0.11495284 -0.15259773 -0.2331141 0.59511673 -0.18980534 0.43769145
-0.268322 0.37090296 0.0138366 0.20229268 0.16182935 -0.18670465 -0.40484196 0.06572703
0.038891982 -0.5346512 0.08075194 0.000750367 0.08992716 0.2611581 0.11810881 -0.40496796
-0.39881364 -0.40551412 0.027793353 0.12805468 0.4355461 0.33710787 0.051010266 0.6814109
-0.59053135 0.16006757 0.3523963 0.21176751 0.32684857 0.5107104 0.32438126 -0.107353985
0.28061545 0.5914949 0.046922024 0.29956326 -0.43111575 0.00044069538 -0.24901623 0.14696386
0.41266108 -0.1271502 -0.018089876 0.041779976 0.30929068 -0.20087269 0.034098085 0.7722814
0.41170403 -0.03795931 0.28586146 -0.20939799 -0.12033272 0.38934845 -0.055653088 0.05967286
-0.23028655 -0.08320012 -0.46639204 0.0439815 -0.51105237 0.47464982 -0.32184866 0.23848823
0.2661534 -0.30306023 -0.01600333 0.043651715 0.13299952 0.1017391 0.3829532 0.2134199
-0.07088243 0.5808371 0.1413498 0.0035986044 0.18070303 0.14857355 0.067288674 0.22540732
0.38757795 0.22538045 -0.13104068 -0.22958475 -0.51611596 -0.22055918 0.42097905 -0.4053496
0.4566886 0.095813975 -0.12990505 0.06737811 0.08276974 -0.8845088 0.11522546 -0.016093627
0.6694618 0.321306 -0.427323 -0.34108812 -0.11534514 0.2700665 -0.1817594 0.15254876
-0.31410748 0.025047868 -0.070328735 0.08724067 0.29144198 0.009056872 0.38409567 0.32341355
0.20460908 0.22174102 0.08309952 0.31385726 0.20727417 0.05617408 -0.48675367 -0.1695135
-0.34010285 -0.0026442911 0.17098497 0.19632359 0.19688545 0.8572049 -0.39610943 0.031423237

model.3.bias f4 [16]
00000000: 03ec 033e 83a9 77be 8d19 4b3e 24cd 3abe
00000010: 2044 8c3e 59ed 7c3e 5117 483c 3c94 113e
00000020: 12f8 b13e 60ea 833e f0a0 b138 ea3a a13d
00000030: 0f9d 403e 532c 5d3e 49a7 3b3e 9265 c43d
0.12883 -0.24185757 0.19833966 -0.18242317 0.27395725 0.24699916 0.01221259 0.14216703
0.34759575 0.2576475 8.469995e-05 0.07872565 0.18809913 0.2159894 0.18325533 0.095896855

model.5.weight f4 [10, 16]
00000000: 19fa 693e 4032 62be b912 abbe 6a8b 2b3e
00000010: 8c41 b53e 516f 10bf 27f0 16bf 6deb efbe
00000020: 25ef f4be 3f40 a8bd 2dd8 2b3d 1874 0a3f
00000030: 1f1e 7b3b baa1 073e 3332 2b3e 0f82 2c3e
00000040: dbe9 8c3e d4ad 20bf 474e 1bbf 30a8 3d3e
00000050: cfe3 c9be ed01 313f aa99 11be e031 0b3f
00000060: bc54 193e e7f4 abbc 9a30 0cbf 06d9 8b3e
00000070: de6f 3fbd fa70 87bc e36f 9d3e 8c4d 4ebf
00000080: dd2b 89be bd95 053e bb10 e7be 6ca7 a53d
00000090: 7fb1 96bd b3af 8b3e ce63 67be 1509 6abe
000000a0: 1ce5 733e 4adf 9f3e 469e c0be ea07 5d3d
000000b0: 7aa2 b63e 1405 19bf 4a4b 44be cfb2 dd3e
000000c0: ded0 56be e354 f43d f6e2 1a3e f5dc 5cbe
000000d0: cb66 aebe ad20 0e3e 3f08 19be 7b68 9a3e
000000e0: 22e0 21bf 1da1 843e 437f a13e 0fe5 f4be
000000f0: 8565 91be 50d3 7c3d 4817 b2bd e24e bf3e
00000100: 734f 96be cc0f 3abe 9850 a4bc b004 5fbf
00000110: f141 52be 1004 f83c 9ea9 733e cf4a c6be
00000120: b670 743e 7f0c b43d a54f 8d3e d50b 063f
00000130: 5740 8e3e 341d 043f 0370 e2be a08b 52bf
00000140: 6e01 1dbe 6670 dcbe 19c5 d63e 0fb3 84bd
00000150: 7e97 643e e443 8dbe a856 20bf 5e97 863e
00000160: b361 b53e cf6b 2dbf 7bb2 4dbd 38d7 98bf
00000170: 8260 eabc a9fb ad3e 034a 043e 8648 533e
00000180: 1b46 b8bd 71a8 b33e 7ab6 7ebe b468 8e3e
00000190: 0f3a f93e a89c b4bd fbdc 2abf 25e7 1bbd
000001a0: c9f8 ec3d e337 40bf a3e2 91be e9b8 e23d
000001b0: c265 5d3e 539a ab3d a15e c0be 378b 14bf
000001c0: 5af0 42bf 4e85 c7be f570 603e b9b3 e63e
000001d0: ae09 e3be 592f 103d acf3 843e 9a16 60bf
000001e0: 0928 cc3d 76a8 bc3e 8e3b 4bbf 3513 d63e
000001f0: 181f 20bf 60ee 10be 3ab7 933e f1f6 8a3d
00000200: 526c a23e 5e67 e23e 50c7 b5bd ab31 3e3e
00000210: 9632 09bf 102b 32be 2a26 e53d 22b8 00be
00000220: 563c 353e 3752 0abf 4f21 0f3f 6c7d f0be
00000230: 4164 ba3e 479b 46be a9f2 343c 3128 14be
00000240: 81c1 1e3f d675 00be d25e 5d3e 7339 28bf
00000250: ec06 08bc 97de 75bf 4122 e63d f1a0 ea3d
00000260: 89e1 e93d e5c5 783e 6ae2 fdbd 39d9 dbbc
00000270: 894b 75be 4669 2bbe c06e db3e edfd cdbe
0.22849311 -0.22089481 -0.33412722 0.16752401 0.3540157 -0.56419855 -0.58960193 -0.46859303
-0.47838703 -0.08215379 0.04195421 0.54083395 0.0038317514 0.13245288 0.16718368 0.16846488
0.27522168 -0.6276524 -0.60666317 0.1852119 -0.39431617 0.69143564 -0.14218774 0.5437298
0.1497373 -0.020990802 -0.5476166 0.27314013 -0.046737544 -0.016533364 0.30749425 -0.8058708
-0.26791278 0.13045402 -0.45129952 0.08088574 -0.073580734 0.27282485 -0.22596666 -0.22855027
0.23817867 0.31225044 -0.37620753 0.053962626 0.35670835 -0.59773374 -0.19169345 0.43300483
-0.20978114 0.11930253 0.15125641 -0.21568663 -0.340628 0.13879652 -0.14944552 0.30157837
-0.63232625 0.2590417 0.31542405 -0.47831008 -0.28397766 0.06172496 -0.08695847 0.3736487
-0.2935749 -0.18170089 -0.020057961 -0.8711653 -0.20532967 0.030275375 0.23795173 -0.3872895
0.23871121 0.08791446 0.27599826 0.52361804 0.27783462 0.5160706 -0.44226083 -0.822443
-0.15332577 -0.43054503 0.4194725 -0.06479465 0.22323415 -0.2759086 -0.62632227 0.2628736
0.354261 -0.6774263 -0.05021904 -1.194068 -0.028610472 0.33981064 0.12918858 0.20633134
-0.089977466 0.35089448 -0.24874297 0.27814257 0.48677108 -0.08818942 -0.6674344 -0.038062233
0.115708895 -0.75085276 -0.28493223 0.11070425 0.21620849 0.083790444 -0.37572196 -0.58024925
-0.76148 -0.3896889 0.2191809 0.45058993 -0.44343323 0.035201404 0.25967157 -0.8753449
0.099685736 0.36847275 -0.7938775 0.4181153 -0.62547445 -0.14153433 0.28850728 0.067853816
0.31723267 0.44219488 -0.088759065 0.18573634 -0.53592813 -0.1739924 0.1118892 -0.12570241
0.17698798 -0.540317 0.559102 -0.4697069 0.36404613 -0.19395171 0.011044183 -0.14468457
0.62014014 -0.12544951 0.21618202 -0.6571266 -0.008302432 -0.9604277 0.11237002 0.114564784
0.114199705 0.24294241 -0.12396701 -0.026836978 -0.23954596 -0.16739377 0.42857933 -0.40232792

model.5.bias f4 [10]
00000000: 40de 8cbe 06ff c8bb cb16 cabd 78e7 a9bd
00000010: e7c6 b33d 9aa7 a43a 9ca4 25be 8c49 60bd
00000020: f04b c5bc e6f0 c4bd
-0.27513313 -0.006133917 -0.09867629 -0.08296102 0.08778172 0.0012562156 -0.16176075 -0.05475764
-0.024084061 -0.0961626

exp_avg f4 [32, 784]
00000000: 0000 0000 0000 0000 0000 0000 0000 0000
00000010: 0000 0000 0000 0000 0000 0000 0000 0000
00000020: 0000 0000 0000 0000 0000 0000 0000 0000
00000030: 0400 0000 0400 0000 0000 0000 0000 0000
00000040: 0000 0000 0000 0000 0000 0000 0000 0000
00000050: 0000 0000 0000 0000 0000 0000 0000 0000
00000060: 0000 0000 0000 0000 0000 0000 0000 0000
00000070: 0000 0000 0000 0000 0000 0000 0000 0000
00000080: 0000 0000 0400 0000 0400 0000 f005 0000
00000090: 32d6 d12b 879e bb2a 71ea 6a21 59b3 cb90
000000a0: aa2e 398f 0400 0000 aa3b 3229 b837 9b29
000000b0: 8c2b a422 d478 8b20 0400 0000 0400 0000
000000c0: 0400 0000 0400 0000 0000 0000 0000 0000
000000d0: 0000 0000 0000 0000 0000 0000 0000 0000
000000e0: 0000 0000 0000 0000 0000 0000 11ab 4511
000000f0: e30b 0100 e08f d92a f8dc 1f2c 080d dc2f
00000100: 3d10 fab0 22ab 7bb3 2ca9 7fb3 31f2 c3b2
00000110: e05b 9eb1 5a00 1237 40a5 2336 e662 4938
00000120: 0849 5038 acdb 9036 e045 6938 c751 b837
00000130: ac58 b9b5 d2ba ae2c d461 df29 edba a317
00000140: 0400 0000 0000 0000 0000 0000 0000 0000
00000150: 0000 0000 0000 0000 e1f7 1b80 61f7 bf12
00000160: 1024 b497 4c32 5332 0e6d 3b34 e6fb 2f36
00000170: 994b 9736 e446 f7b3 362b 69b4 915d 37b6
00000180: 1d03 a7b8 7c94 feb8 abdb f138 c711 8f39
00000190: 4dba 3b38 f550 3237 eeee 7238 6ce6 8bb7
000001a0: f6ea 1fb8 628f 79b7 48e9 15b6 dbd7 93b3
000001b0: 3251 69b3 41b8 fe1a 0400 0080 0000 0000
000001c0: 0000 0000 94ac 9799 2968 319e 236a db2a
000001d0: 2eed 52b4 d9a9 8cb6 b74a 93b6 e853 1936
000001e0: e658 f037 b304 d737 01c3 5438 86c2 02b8
000001f0: 765e 27b8 8803 c4b8 02f3 3239 bae4 f839
00000200: 9ba3 d639 d8fa ae39 2fb0 9d39 a661 7d37
00000210: b1e7 4938 5228 9fb8 d94e 49b9 b918 aeb8
00000220: 6b06 9db5 ed5c a1b5 6678 b9a0 0400 0000
00000230: 0000 0000 0000 0000 eb8a 6c9d bda0 dcac
00000240: 29e7 7d34 6c39 0436 535b 30b7 6661 3b37
00000250: 8763 07b8 c617 55b8 277a 2339 a5f1 d039
00000260: a71f b939 dcf2 d43a 9ebf 213b f8fe e63a
00000270: 288a 9f3a b3ff 303a 9949 b039 27e7 6339
00000280: cc5f 6e39 bb94 4a39 0809 14b9 ce17 9fb8
00000290: 7d3b cf36 0f30 2db6 1d5f 31b4 9d4f 0a94
000002a0: 0000 0000 228e 7792 4377 36b0 ee57 98b4
000002b0: 0b73 df36 48a3 1638 4474 a0b8 3c88 9bb8
000002c0: c764 b3b8 96c7 9039 9379 013a b431 b23a
000002d0: 1b72 f23a 9830 2e3b d9e5 2a3b 3628 1d3b
000002e0: ebd6 0a3b 1467 d83a 649a 4a3a 5fd6 2339
000002f0: 0e5f 2a39 fa7a 7d38 c189 35b9 2ef6 c1b8
00000300: 5902 cc36 a217 beb5 d4a2 eab4 b297 a69e
00000310: aafb f906 577a da24 777a 3733 f752 6533
00000320: e326 b836 0778 d3b8 f235 2bb9 c730 0db9
00000330: 151f 2639 b1b2 d839 60b7 1c3a 11fc cb3a
00000340: 8c29 133b 7de3 2b3b c964 383b b39c 203b
00000350: 1405 0a3b dc26 0d3b a5a8 1a3b 9587 173a
00000360: dec2 d439 3219 c938 79a7 4238 b357 3b35
00000370: 20ef 6f36 9459 2db6 33e9 11b5 0ada fc9d
00000380: e6f8 fd07 7418 5c26 3b51 a933 7884 38b6
00000390: 7420 c737 625d 59b8 8609 e5b8 4d85 f5b8
000003a0: e88e ae39 df8d 5d39 20e0 ca3a 9542 fb3a
000003b0: 6158 183b d0a7 f13a 6cfa 0f3b b3da 2f3b
000003c0: 6cd1 133b 6ae1 113b ec38 1a3b b2a5 053a
000003d0: fe9e f439 50fb da39 7440 e039 71b5 7439
000003e0: 2bee 5e36 6b2e 2036 bee7 6db6 70ce 0200
000003f0: e1fb a3a3 9820 27a6 e448 c232 9e41 91b6
0.0 0.0 0.0 0.0 0.0 0.0 0.0 0.0
0.0 0.0 0.0 0.0 6e-45 6e-45 0.0 0.0
0.0 0.0 0.0 0.0 0.0 0.0 0.0 0.0
0.0 0.0 0.0 0.0 0.0 0.0 0.0 0.0
0.0 6e-45 6e-45 2.13e-42 1.4909794e-12 3.3327873e-13 7.9592564e-19 -8.034571e-29
-9.1301914e-30 6e-45 3.957569e-14 6.8930484e-14 4.4498396e-18 2.3627473e-19 6e-45 6e-45
6e-45 6e-45 0.0 0.0 0.0 0.0 0.0 0.0
0.0 0.0 0.0 1.5593274e-28 9.61e-41 3.8646777e-13 2.2717921e-12 4.0027026e-10
-1.8194509e-09 -5.8596136e-08 -5.9525675e-08 -2.2811124e-08 -4.60885e-09 8.70236e-06 2.438508e-06 4.801424e-05
4.965908e-05 4.3171076e-06 5.5616605e-05 2.197259e-05 -1.3809381e-06 4.9661187e-12 9.92016e-14 1.0580815e-24
6e-45 0.0 0.0 0.0 0.0 0.0 -2.56848e-39 1.2114778e-27
-1.1641331e-24 1.2293253e-08 1.7455406e-07 2.6223656e-06 4.5089514e-06 -1.1514729e-07 -2.1715536e-07 -2.7323588e-06
-7.9637604e-05 -0.00012139321 0.00011532692 0.0002728833 4.475778e-05 1.0628476e-05 5.7919817e-05 -1.667739e-05
-3.812738e-05 -1.48749405e-05 -2.2338518e-06 -6.884485e-08 -5.4323387e-08 1.05349616e-22 -6e-45 0.0
0.0 -1.5682738e-23 -9.391842e-21 3.8975862e-13 -1.964406e-07 -4.192098e-06 -4.3896393e-06 2.2847616e-06
2.8651626e-05 2.5632185e-05 5.072635e-05 -3.117558e-05 -3.9903876e-05 -9.346666e-05 0.0001706593 0.0004747266
0.00040939156 0.0003337476 0.0003007664 1.5102711e-05 4.8137914e-05 -7.589221e-05 -0.00019198227 -8.3015715e-05
-1.1699279e-06 -1.202248e-06 -3.1419892e-19 6e-45 0.0 0.0 -3.1306159e-21 -6.2706216e-12
2.3646557e-07 1.9702957e-06 -1.0511681e-05 1.1168746e-05 -3.22792e-05 -5.0805298e-05 0.00015590397 0.0003985289
0.00035309533 0.0016246694 0.0024680863 0.0017623594 0.0012171911 0.00067519693 0.0003362417 0.00021734518
0.00022733136 0.00019319628 -0.00014117744 -7.586145e-05 6.176006e-06 -2.5806983e-06 -1.6519012e-07 -6.9829205e-27
0.0 -7.811465e-28 -6.6380695e-10 -2.8376184e-07 6.6593107e-06 3.5914854e-05 -7.651051e-05 -7.4163516e-05
-8.5541564e-05 0.00027614523 0.00049390754 0.0013595135 0.0018497141 0.0026579257 0.0026076941 0.0023980266
0.002118523 0.0016510212 0.00077286945 0.00015624751 0.00016247874 6.043443e-05 -0.00017312822 -9.248812e-05
6.079947e-06 -1.4162981e-06 -4.370437e-07 -1.7638673e-20 9.4033177e-35 9.474968e-17 4.271939e-08 5.3393673e-08
5.4881543e-06 -0.00010083621 -0.00016327927 -0.00013464979 0.00015842573 0.00041331866 0.0005978253 0.0015562793
0.0022455184 0.0026228123 0.0028136245 0.0024507463 0.0021060156 0.0021538055 0.0023599055 0.0005780396
0.00040580978 9.58912e-05 4.6409175e-05 6.979055e-07 3.5752964e-06 -2.583115e-06 -5.435606e-07 -6.692929e-21
3.8213498e-34 7.6360973e-16 7.8844515e-08 -2.7495244e-06 2.373776e-05 -5.18238e-05 -0.00010921345 -0.000117073396
0.0003329434 0.00021129053 0.0015478171 0.0019169623 0.0023246037 0.0018436853 0.0021969331 0.0026833236
0.0022555245 0.0022259601 0.0023532463 0.0005098238 0.00046657765 0.00041767443 0.0004277263 0.00023337246
3.321921e-06 2.3868877e-06 -3.5450644e-06 2.57727e-40 -1.777917e-17 -5.7983937e-16 2.261772e-08 -4.3289756e-06

exp_avg_sq f4 [32, 784]
00000000: 0000 0000 0000 0000 0000 0000 0000 0000
00000010: 0000 0000 0000 0000 0000 0000 0000 0000
00000020: 0000 0000 0000 0000 0000 0000 0000 0000
00000030: 2739 5d26 9595 8427 0000 0000 0000 0000
00000040: 0000 0000 0000 0000 0000 0000 0000 0000
00000050: 0000 0000 0000 0000 0000 0000 0000 0000
00000060: 0000 0000 0000 0000 0000 0000 0000 0000
00000070: 0000 0000 0000 0000 0000 0000 0000 0000
00000080: 0000 0000 d708 e223 99da fb28 bdf1 352a
00000090: 0065 262a 4c2d 8128 2c9d 3728 0515 8627
000000a0: c160 222a d103 f229 a41b 8d2b 7eba fc2b
000000b0: dd36 3a2a e72e 5029 0736 f427 8b49 3e25
000000c0: 126c 6525 185f d821 0000 0000 0000 0000
000000d0: 0000 0000 0000 0000 0000 0000 0000 0000
000000e0: 0000 0000 0000 0000 0000 0000 6662 2129
000000f0: 07e7 4228 2124 1327 6cf5 9529 6dda c02b
00000100: d0de f02e 5320 ea30 73c0 ba30 a376 8130
00000110: 44e8 7932 a00b 3733 5e9d 0734 1f03 d734
00000120: 190f 9a34 b51b 9b33 2079 ef33 f30c 0034
00000130: bd82 ed33 2a9c 6533 9667 8b32 f262 cf31
00000140: 5e46 6926 0000 0000 0000 0000 0000 0000
00000150: 0000 0000 0000 0000 3c26 0230 0123 ff2d
00000160: 2e87 902e 2c1c 862f 4b65 7531 2a24 4933
00000170: 3959 b534 e2e8 6e34 6db3 6635 82b9 b035
00000180: 31a6 1736 b310 8e36 cd36 a136 1809 7136
00000190: 7489 5a36 ae67 3436 9fae c035 c8f2 8035
000001a0: 6aba d833 cd13 8533 b308 ca33 1f83 eb32
000001b0: 9aaf d630 6124 1c2f 4a31 3624 0000 0000
000001c0: 0000 0000 2f9e f41f 3651 bf31 bf7c 5630
000001d0: 6420 0b32 847e 5834 b2ba 1d35 437c bc35
000001e0: afff 3036 5ba8 8836 012a b636 ea53 0e37
000001f0: 69a0 8137 53ad a237 3a8e c537 b9b7 bc37
00000200: 0982 9e37 f92a 7637 477e 1a37 f760 ae36
00000210: 5f3c 7736 6873 4f36 744d 1b36 bcd7 b534
00000220: cebe b733 fc51 2c33 a28a e926 d4a6 7d23
00000230: 0000 0000 0000 0000 9ab0 ec2e 5105 bf31
00000240: 75a3 1933 c810 dc34 201e e935 fc3e 9e36
00000250: ab7b fa36 c27a 4e37 2350 9837 0c33 ed37
00000260: eb14 2838 1ef0 4138 cd03 5438 a7eb 4b38
00000270: 70e1 3f38 5188 0d38 3c7d bd37 1ef4 7237
00000280: e92d 2c37 38c7 cf36 7deb 6d36 401a 5b35
00000290: 2440 a234 c9ea 0f34 a51e 4d33 3752 1125
000002a0: 0000 0000 da88 9927 b2da c72e 918b f233
000002b0: dce8 cb34 36dc e035 e7b3 a536 8ed7 1037
000002c0: ba1d 5737 9427 c837 d174 0e38 51a7 3238
000002d0: 0d21 5638 095d 6838 95d7 7138 cfd4 6b38
000002e0: 3ea8 6138 7486 3f38 e262 ff37 d164 ab37
000002f0: 5fa8 5837 a13c fb36 91dc 2e36 a953 b835
00000300: deb5 2235 7ae5 9534 b52b b230 1cc3 442c
00000310: 5e4b 3a1e f163 c12d f149 0f2f e6ce 8234
00000320: 9743 5f35 7c35 3a36 a9fe cf36 aa0e 3b37
00000330: 8cf2 a037 edce ee37 8113 1d38 de74 3e38
00000340: 0e4a 4f38 beec 5638 ca40 5d38 f1bb 6c38
00000350: d95a 6938 8d40 4a38 d97f 1938 ae0b de37
00000360: 8447 9237 ca25 2737 eeea 8336 d1ef c435
00000370: ab6a b434 4bb2 cc33 f0a9 7b31 8c75 162d
00000380: b449 4020 ab92 d02f 79a5 0931 1ccb 5834
00000390: 697a 8735 7f29 7136 c937 d936 274b 6137
000003a0: 597a a837 67ba f237 0a62 1f38 0ba6 2338
000003b0: 5a3a 3138 7b18 4138 2af2 4838 c2dd 5438
000003c0: aa93 5438 a374 4238 993c 1b38 12f9 cf37
000003d0: 10f5 9837 053c 2c37 93ec a136 604c b935
000003e0: a9d2 e334 e040 3234 1c92 bf31 eeff c728
000003f0: ca67 822a 1aff bd2c f0b0 da32 7485 5934
0.0 0.0 0.0 0.0 0.0 0.0 0.0 0.0
0.0 0.0 0.0 0.0 7.6752234e-16 3.6799537e-15 0.0 0.0
0.0 0.0 0.0 0.0 0.0 0.0 0.0 0.0
0.0 0.0 0.0 0.0 0.0 0.0 0.0 0.0
0.0 2.4506713e-17 2.79614e-14 1.6159899e-13 1.4778803e-13 1.4341521e-14 1.0192622e-14 3.721526e-15
1.4422059e-13 1.0747621e-13 1.0026324e-12 1.7957439e-12 1.6539153e-13 4.622596e-14 6.778218e-15 1.650479e-16
1.98992e-16 1.46619e-18 0.0 0.0 0.0 0.0 0.0 0.0
0.0 0.0 0.0 3.583453e-14 1.0819259e-14 2.0419934e-15 6.659503e-14 1.3703046e-12
1.0953516e-10 1.7034928e-09 1.3587979e-09 9.419704e-10 1.4546519e-08 4.261858e-08 1.2630105e-07 4.0049142e-07
2.869572e-07 7.22279e-08 1.1151337e-07 1.192564e-07 1.1059954e-07 5.3460248e-08 1.6228835e-08 6.0357417e-09
8.093348e-16 0.0 0.0 0.0 0.0 0.0 4.734806e-10 2.9005688e-11
6.5723746e-11 2.4394475e-10 3.570977e-09 4.683185e-08 3.3778795e-07 2.22502e-07 8.5942776e-07 1.3167012e-06
2.259749e-06 4.233874e-06 4.8045536e-06 3.5917092e-06 3.256454e-06 2.688244e-06 1.4355936e-06 9.607402e-07
1.0092192e-07 6.196897e-08 9.4079404e-08 2.7417228e-08 1.5620458e-09 1.4201042e-10 3.950671e-17 0.0
0.0 1.0359971e-19 5.5680642e-09 7.803002e-10 8.09823e-09 2.0162594e-07 5.8758735e-07 1.4043256e-06
2.6374871e-06 4.072715e-06 5.4289126e-06 8.483397e-06 1.5452695e-05 1.9392615e-05 2.355046e-05 2.2496899e-05
1.889562e-05 1.4672748e-05 9.2085165e-06 5.1968923e-06 3.6841009e-06 3.091258e-06 2.3141884e-06 3.3870845e-07
8.556309e-08 4.0121435e-08 1.6205199e-15 1.3750485e-17 0.0 0.0 1.0763408e-10 5.559436e-09
3.5771752e-08 4.0990403e-07 1.736862e-06 4.7160993e-06 7.4649774e-06 1.2307139e-05 1.8157129e-05 2.8276372e-05
4.0073803e-05 4.6238412e-05 5.054828e-05 4.861844e-05 4.5747904e-05 3.3743974e-05 2.2588873e-05 1.4481162e-05
1.0262688e-05 6.192273e-06 3.5452824e-06 8.1622056e-07 3.022152e-07 1.3403327e-07 4.7758153e-08 1.2604601e-16
0.0 4.2614405e-15 9.0883204e-11 1.129439e-07 3.7981124e-07 1.675339e-06 4.9383266e-06 8.633257e-06
1.282192e-05 2.3860288e-05 3.3964232e-05 4.2594333e-05 5.1052357e-05 5.5399756e-05 5.7659654e-05 5.622656e-05
5.3800868e-05 4.5663168e-05 3.0444415e-05 2.0431735e-05 1.2913805e-05 7.487441e-06 2.6056407e-06 1.3733417e-06
6.0614354e-07 2.792038e-07 1.2963627e-09 2.7961583e-12 9.8623436e-21 2.1985943e-11 1.3032043e-10 2.4364925e-07
8.317233e-07 2.7747292e-06 6.198727e-06 1.1149483e-05 1.9186431e-05 2.8468168e-05 3.744988e-05 4.540837e-05
4.9421615e-05 5.124206e-05 5.2750845e-05 5.644182e-05 5.5636137e-05 4.822067e-05 3.659711e-05 2.6469901e-05
1.7437858e-05 9.962774e-06 3.9314536e-06 1.4672934e-06 3.3605224e-07 9.5319216e-08 3.6621906e-09 8.5526135e-12
1.6287419e-19 3.7939193e-10 2.0030184e-09 2.0190458e-07 1.009391e-06 3.5935952e-06 6.473598e-06 1.3428543e-05
2.0084133e-05 2.8935448e-05 3.799986e-05 3.9016868e-05 4.2254433e-05 4.6037585e-05 4.790925e-05 5.0751267e-05
5.068226e-05 4.636183e-05 3.7011316e-05 2.4792305e-05 1.8233928e-05 1.0265973e-05 4.8257148e-06 1.3805802e-06
4.243532e-07 1.6601143e-07 5.5754423e-09 2.220443e-14 2.3164657e-13 5.400025e-12 2.5459002e-08 2.025825e-07

exp_avg f4 [32]
00000000: a5f4 1b3b 3748 dc39 e254 353b ce23 eaba
00000010: 8074 16b9 1d38 4c3b 5bb5 07bb 05d4 913b
00000020: 8ac3 d53b f9fe bdba 0400 0000 52fd e0ba
00000030: 4200 38bb ecee 98b9 3b08 833b cb24 963a
00000040: fdfd 873a 31e3 193a 81ef 3bbb a903 c03b
00000050: 875f ec3a 912e e73a dfdf f2bb f2a8 aeba
00000060: 105b 52bb 0400 0000 e0fc 2bbb 152d e539
00000070: 8886 e0ba 38e6 c83b 1243 f2ba 78e9 e0b9
0.0023796943 0.00042015474 0.0027669002 -0.0017863454 -0.00014348514 0.0031161376 -0.0020707462 0.0044503235
0.006523554 -0.0014495543 6e-45 -0.0017165339 -0.0028076326 -0.0002916971 0.003998784 0.0011455057
0.0010375377 0.0005870341 -0.002867669 0.0058598113 0.001803384 0.0017637779 -0.0074119414 -0.0013325496
-0.0032097735 6e-45 -0.0026243255 0.00043711872 -0.0017129937 0.00613096 -0.0018483123 -0.00042898557

exp_avg_sq f4 [32]
00000000: 920d f038 32e8 2339 0c5f a838 1d86 b538
00000010: 8381 b738 80c3 1838 a7b4 db38 d3e7 8238
00000020: ed1f f438 919f c438 1d28 0528 4e42 cc38
00000030: 410a 8438 53e9 2338 89e7 1c38 8c3a 0939
00000040: f460 8638 11e5 bd38 d713 0c39 9475 8838
00000050: 920d 1139 7ffa d938 b9ee 1339 0603 0c39
00000060: f079 9638 df27 5029 9498 0e39 7332 4538
00000070: ebca 2f39 b0ec 6239 d0ad 8038 cb1a 8d38
0.000114466195 0.00015631391 8.028568e-05 8.655733e-05 8.7502434e-05 3.6421698e-05 0.00010476383 6.242064e-05
0.00011640773 9.37573e-05 7.391681e-15 9.739828e-05 6.2961604e-05 3.907953e-05 3.7408932e-05 0.00013087149
6.407677e-05 9.054889e-05 0.00013358831 6.506886e-05 0.00013833333 0.00010394025 0.00014107944 0.00013352567
7.17527e-05 4.621986e-14 0.00013599015 4.7015445e-05 0.00016764893 0.00021641213 6.135891e-05 6.7283945e-05

exp_avg f4 [16, 32]
00000000: 045b 5ebc e199 f0ba eda4 30bc 62bf e0ba
00000010: c03e 59b9 3448 63bc 76e0 903a ce85 c1bc
00000020: d16f 183b 1837 ffbb 0400 0000 e282 673a
00000030: c0eb 54bc 4cde 41bc 4893 6bbc 9188 75bb
00000040: 8f3f 6bbc ab52 a0bc ae75 8a3a ae4d 0abc
00000050: d7a9 0dbb 0b71 52bc db23 00bc 3963 caba
00000060: c291 bcbb 0400 0080 c046 d0bb af26 89bc
00000070: 49d6 85bc 4811 78bb 0ccf 5fbc 387f aebc
00000080: 1b2c 9e3b 75c9 f33a b77c 693c d0f8 953b
00000090: 378b b2ba 18f5 bc3b daa8 d63a 3b2a 873c
000000a0: 3762 7eb9 e3e6 e13b 0400 0000 c8c4 4e3b
000000b0: e64e 1e3c 943e 9f3b 07a4 5f3b 0f97 113b
000000c0: fc30 503c 0101 163c f54b 7abb bebd edba
000000d0: d5e6 543a e033 593c 68f1 f539 6fdb f63a
000000e0: e2ca 1c3c 0000 0000 4a2a 56bb 1f8c d03b
000000f0: b0e4 293c bc7e 0f3b 2ceb 283c d129 743c
00000100: 7f30 043b f048 273b e101 743a 3ebf b13b
00000110: 985c 1139 6b29 4c3b 1295 73ba a5d2 c23b
00000120: 4a0a 583b 0087 553b 0400 0080 584a a23b
00000130: 7078 1a3c 677d 113b a474 5b3b 843e 0b3b
00000140: 3637 e13b b8fb 8f3b a2b6 553b 84cd 9c3b
00000150: 8cdb 403b e461 283a 308d 8db9 c251 973b
00000160: d2fa b63b 0000 0000 a0e2 8e39 e2b3 603b
00000170: b09b dc3b c3f7 a1ba 1ccf be3b 8d4d f53b
00000180: a9cb eb3b e535 273b 384a 2b3c 5ecb dc3b
00000190: 5619 df3b ee7c 183c 0dd4 cd3b 0138 9f3c
000001a0: e49d 7b3b 8935 063c 0400 0000 d454 153b
000001b0: 67da 873c 84e6 323c a998 233c d0dd f63a
000001c0: 4c83 9c3c a146 863c cd21 ac3a f67f d13b
000001d0: ff44 bc3a 7436 bb3b 126c 383c 33fb 623c
000001e0: b2d6 463b 0000 0000 5392 ce3b 299e 493c
000001f0: 9313 7e3c 938c 593b d895 913c e1ec 8c3c
00000200: 84eb 73bb f8a7 b2ba 19d4 86bb ac9e 17bb
00000210: bf0c 023a 7228 aabb 1c8d 18bb 8db3 b1bb
00000220: 6ee0 beba 20d5 30bb 0400 0000 3caa deb8
00000230: 7062 a1bb 877b e0bb 5c8b a8bb 3a90 6bba
00000240: 852d 75bb 7c79 ecbb af70 803a 5635 73bb
00000250: d5bd d0b9 22ca 89bb faaf 8d39 e53a 01bb
00000260: faab b9ba 0400 0000 15ed 04bb 8c35 d4bb
00000270: 768e 82bb 88ca 31bb c868 9ebb a342 e3bb
00000280: f403 703c c8a2 82ba 5522 413c 909f cabb
00000290: 41c4 993b 0e47 523c 76fd 833b bec8 b83c
000002a0: 3836 bbbb d48a 123c 0400 0080 aabd b9bb
000002b0: 2e08 983b cc0c 5a3c bc69 863c 20b3 4cba
000002c0: 3ca7 5f3c 25c4 bd3c d2e4 e8ba 5811 713b
000002d0: 505d 84b9 ab16 883c 900c 4f3c 3a49 603b
000002e0: 50b7 72ba 0400 0080 d3ba 0c3c 2912 213c
000002f0: b74e 863c a6b7 183c eb41 3d3c 6e34 813c
00000300: 4a2d 8ebb 3e5d bcb9 f6b9 dfbb 4e44 18bb
00000310: 5813 a7bb 7200 e0bb 21d1 f8ba 91cb 61bc
00000320: e2ed 00bb f236 6fbb 0400 0000 f050 59b9
00000330: 08db 01bc c73e f7bb c269 e6bb d7fb 4b3a
00000340: 921c 50bc 578e 14bc f2b8 01bb 3791 63bb
00000350: 027a 16ba e4df 0cbc 1eaa 05bc 4042 e7bb
00000360: 0057 0ab8 0000 0000 20f9 98bb 6c94 fbbb
00000370: 6c82 15bc 2ad4 8cbb d0f4 31bc 6867 36bc
00000380: 1ed5 bf3a ecc6 80ba 7c6f 87ba c333 90bb
00000390: 65ca 613b 5a78 87bb d3a5 003b 0000 1234
000003a0: b205 55bb a0d2 5539 0400 0080 53d9 3abb
000003b0: a4c8 1ebb 5056 f9ba 6ce3 f5ba 4cfd 6ebb
000003c0: ee3c 883b 3810 b83b 781c 9339 8865 0cbc
000003d0: 8834 373a be39 7d3b 7e8d 2c3b 0900 893b
000003e0: 1568 06bc 0400 0080 a813 263a 22d8 27bc
000003f0: 289f 153b a0cf 1c3b 0086 03ba dc23 2bbb
-0.0135715045 -0.0018356406 -0.010781509 -0.001714688 -0.00020718109 -0.013872195 0.0011053223 -0.023623373
0.0023260007 -0.00778855 6e-45 0.0008831454 -0.01299566 -0.011832785 -0.014378376 -0.0037465433
-0.014358415 -0.01957067 0.0010563636 -0.008441372 -0.0021616125 -0.012844334 -0.007821049 -0.0015440948
-0.0057546804 -6e-45 -0.0063560903 -0.016742079 -0.01633753 -0.0037852097 -0.013660204 -0.021300897
0.004827035 0.0018599468 0.014250926 0.00457678 -0.0013621812 0.005766522 0.0016377226 0.01649963
-0.00024259916 0.006893979 6e-45 0.0031550396 0.009662366 0.004859755 0.0034124868 0.0022215282
0.012706991 0.009155513 -0.0038192247 -0.0018138213 0.0008121555 0.013256997 0.00046909903 0.0018833707
0.009569855 0.0 -0.0032679015 0.00636436 0.010369465 0.0021895608 0.010309976 0.014902548
0.0020170507 0.0025525652 0.00093081413 0.005424409 0.00013862771 0.0031152617 -0.00092919276 0.005945521
0.0032965117 0.0032581687 -6e-45 0.00495271 0.009428129 0.002219999 0.0033486271 0.002124698
0.0068730367 0.004394021 0.0032610078 0.0047852416 0.0029427735 0.0006423278 -0.0002699881 0.0046179006
0.0055840993 0.0 0.000272532 0.0034286906 0.0067324266 -0.0012357164 0.005823029 0.0074860514
0.007195909 0.0025514301 0.010454707 0.0067381104 0.00680844 0.009307129 0.006281382 0.019435884
0.003839367 0.008191475 6e-45 0.0022786157 0.016583635 0.010919217 0.0099851275 0.0018834416
0.019105576 0.0163911 0.0013132632 0.006393428 0.0014363824 0.0057132784 0.011256235 0.013853836
0.003034037 0.0 0.0063040643 0.012305775 0.015507597 0.003319536 0.017771646 0.017202796
-0.0037219236 -0.0013630381 -0.0041146395 -0.0023135347 0.0004961006 -0.0051928097 -0.0023277467 -0.0054230154
-0.0014562735 -0.00269825 6e-45 -0.000106174935 -0.0049250647 -0.006850663 -0.005143566 -0.000898603
-0.0037411165 -0.0072166305 0.0009799207 -0.0037110648 -0.00039814287 -0.0042050043 0.00027024728 -0.0019718942
-0.0014165633 6e-45 -0.0020282913 -0.00647611 -0.003984268 -0.0027128775 -0.0048342682 -0.006935434
0.01464938 -0.0009966725 0.011787971 -0.006183572 0.0046925847 0.012834324 0.0040280176 0.022556659
-0.0057132505 0.008944232 -6e-45 -0.0056683617 0.004639647 0.013308715 0.01640784 -0.0007808674
0.013650712 0.023164818 -0.0017768389 0.003678402 -0.00025246525 0.016612371 0.0126372725 0.0034223334
-0.0009258883 -6e-45 0.008589464 0.00983099 0.016394956 0.009321129 0.011551361 0.01577207
-0.004338895 -0.00035927625 -0.006827588 -0.0023234072 -0.0050987415 -0.0068359906 -0.0018983224 -0.013781444
-0.001967304 -0.0036501256 6e-45 -0.00020724884 -0.007925756 -0.0075453254 -0.0070316503 0.00077813625
-0.012702124 -0.00906714 -0.0019794074 -0.0034724006 -0.00057402265 -0.008598302 -0.008158235 -0.007057458
-3.298279e-05 0.0 -0.00466837 -0.0076776054 -0.009125333 -0.004297753 -0.0108615905 -0.011133052
0.0014635657 -0.0009824908 -0.0010332908 -0.0044007017 0.0034452912 -0.00413422 0.001963009 1.359731e-07
-0.0032504615 0.00020391727 -6e-45 -0.0028510883 -0.0024228478 -0.0019022916 -0.0018759794 -0.0036466895
0.004157654 0.005617168 0.00028059236 -0.008569129 0.0006988724 0.0038639153 0.0026329453 0.0041809124
-0.008203526 -6e-45 0.00063353265 -0.010244401 0.002283046 0.0023927465 -0.0005017221 -0.0026113903

exp_avg_sq f4 [16, 32]
00000000: c02b c739 b8fe ac38 6da1 cc3a 722d ee3a
00000010: 1f78 eb3a 0106 c33a ac4d 1d3b 3eb1 083b
00000020: 5644 a639 5c6e 933a 5c8c e324 7dbe 1b3a
00000030: 2d8d 443b 4283 593b f820 e03a bd65 5339
00000040: 8db1 083b b7e4 993a 4f13 ac39 29ec 4d3a
00000050: a3d9 0e39 22d7 863a 6d85 ef3a c81f e73a
00000060: da89 923a fbbd 9a26 27a8 613a 6985 2e3b
00000070: a786 7b3a 856f 6339 d8c8 283b 5723 fe3a
00000080: b12f 7639 dda6 3a39 595c 753a 4c6c ad3a
00000090: ad61 6a3a b2be 843a 6ac6 013a b1e2 b53a
000000a0: 5545 023a e9b9 a939 63ae 5520 34dd 0a3a
000000b0: 1f31 0c3b 9d65 023b 0bfe 733a adc3 5c39
000000c0: 14dd dd3a c2f3 3f3a 4a2f b739 fff6 8a3a
000000d0: dc86 8239 2a59 733a 71ce c939 492b 2a3a
000000e0: e834 f639 0000 0000 1eee d239 c0bb e03a
000000f0: e06b 2c3a 8506 d339 1608 a73a ee56 de3a
00000100: c7da 2839 ed71 2e39 5654 3a3a f3a5 5c3a
00000110: f2dd 0a3a 4927 2a3a 13c8 b939 35e5 6a3a
00000120: 1386 9039 032d 8039 7767 8b22 7202 9539
00000130: 55bc c43a 032a c53a 40e4 0b3a e7a6 9039
00000140: 72e7 8a3a 5026 d439 4086 5039 b0dd 3a3a
00000150: 7334 1139 5781 263a 7606 a439 223c 083a
00000160: 04ce a139 0000 0000 7b92 9939 eceb a73a
00000170: 6d39 ad39 1f0f 7039 3ab8 5c3a 7e83 693a
00000180: fea0 9a39 3e96 4439 9fcc 893a 5485 ae3a
00000190: e4a7 af3a 0ce8 803a e2d4 cf3a b42b cf3a
000001a0: bd16 a339 e453 373a 8d4a e222 d2b7 033a
000001b0: c7a7 033b 135d 1c3b fac8 9a3a 7d12 0e39
000001c0: 8824 e63a 265d 473a af43 dd39 fa1d 643a
000001d0: ed88 ee38 fae6 2b3a 48b0 bc3a c725 df3a
000001e0: 5fa2 5f3a 0000 0000 80e9 193a 3895 073b
000001f0: 273f 333a 2cac 1839 8ae6 f63a 512e c03a
00000200: 658e 3139 f4ca 0039 451f 313a 5057 9a3a
00000210: bad6 563a 07d3 563a c647 df39 7de2 7b3a
00000220: 1693 fe39 8b55 1c39 7529 f422 c524 8339
00000230: e7fe d73a 69ba 0a3b 71bb 583a f32e da38
00000240: 9a64 7d3a 2524 cf39 20b3 9c39 ff1b 6c3a
00000250: cd63 3739 d85f 0a3a 96b1 dc39 d3b8 053a
00000260: a15e 5139 ac76 4a24 6299 c139 20c7 d33a
00000270: e817 c339 3460 b539 3bf1 953a 82d8 7a3a
00000280: d656 eb39 16c6 0639 30ff 893a b0cc 9c3a
00000290: a970 6a3a 680f 943a cb17 633a b222 e93a
000002a0: dbba c839 56ba 333a 5d3b b223 d0d5 143a
000002b0: 8e31 153b 091f 033b 37ce 843a 0c71 3539
000002c0: c108 fd3a 17df 973a 89fd 7f39 649a 443a
000002d0: be0e 0f39 6a22 6c3a 4b37 143a 81c7 983a
000002e0: d196 213a 185c bd26 09df c639 30ec fd3a
000002f0: ceb4 783a d0dd 9139 eb47 d23a c1b5 073b
00000300: 95a4 1739 a78c fc38 6373 1d3a b76c 813a
00000310: cd78 483a 991e 3b3a 1628 073a 8c00 4f3a
00000320: 6eac b739 753f 3339 0c5c 1121 bb72 7339
00000330: de1a b83a 79cb df3a 38d0 353a 3711 dc38
00000340: adf6 693a d902 ca39 1aa7 8639 2d92 433a
00000350: 5fd6 f438 dbb0 e239 8bc2 c939 42d8 1b3a
00000360: 16fa 7739 0000 0000 ae65 b139 0c3f af3a
00000370: 73b1 b739 520a 8839 98ff 8d3a 040e 563a
00000380: 7fe5 8f39 8fd9 3e39 2c5d 663a ccea 493a
00000390: bac3 333a 61a0 6d3a 34b6 143a b126 bd3a
000003a0: b157 7539 208c 0f3a 04fe a523 6d79 d239
000003b0: 9e3e d33a 3330 bd3a bb0c 583a 067e af39
000003c0: aafe e13a 2ae3 653a b4aa 6e39 ff1a 4e3a
000003d0: c865 2c39 d971 753a 295a 513a 69e4 3c3a
000003e0: 8a9a ec39 77bc 0427 c090 d539 6144 bb3a
000003f0: 9308 ff39 48a5 2d39 7de0 613a c932 b43a
0.00037988834 8.249044e-05 0.0015612073 0.0018171503 0.0017964876 0.0014879109 0.0024002595 0.0020857598
0.00031712902 0.00112481 9.8683335e-17 0.0005941166 0.0029991374 0.0033189808 0.0017099669 0.00020160429
0.0020857782 0.0011741136 0.00032820783 0.000785532 0.00013623251 0.0010287503 0.0018274017 0.0017633373
0.0011179999 1.0737391e-15 0.00086081255 0.0026629812 0.0009594955 0.00021689951 0.0025754478 0.0019389194
0.00023478155 0.00017800504 0.0009359769 0.0013231128 0.00089409464 0.0010127632 0.00049505255 0.0013876763
0.0004969438 0.00032372706 1.8099502e-19 0.0005297244 0.0021391583 0.0019896992 0.00093075697 0.0002105373
0.0016926848 0.00073223945 0.00034939713 0.0010602175 0.0002489601 0.0009283001 0.00038491518 0.00064914353
0.00046960195 0.0 0.00040231732 0.0017145798 0.0006577354 0.00040249914 0.0012743499 0.0016963163
0.0001610323 0.00016636374 0.0007107904 0.00084170623 0.00052973547 0.00064908393 0.00035435017 0.0008960546
0.00027565713 0.000244476 3.7785573e-18 0.00028421317 0.0015009741 0.0015042428 0.0005336441 0.00027590172
0.001059754 0.00040464336 0.00019886438 0.0007128371 0.00013847816 0.00063516706 0.0003128533 0.0005196949
0.00030861807 0.0 0.0002929157 0.0012811399 0.00033039917 0.00022893817 0.0008419786 0.00089078385
0.00029493117 0.00018747986 0.0010513252 0.0013314881 0.0013401476 0.000983478 0.0015856291 0.0015805871
0.00031106724 0.00069933967 6.1336356e-18 0.0005024645 0.0020089017 0.0023859187 0.0011809163 0.00013549063
0.0017558495 0.0007605128 0.00042202833 0.00087019766 0.00011374229 0.00065575505 0.0014395798 0.0017024808
0.000853097 0.0 0.0005871281 0.0020688307 0.00068377185 0.00014559989 0.0018837017 0.0014662241
0.00016933081 0.00012282637 0.00067566737 0.0011775289 0.0008195449 0.00081948977 0.0004258735 0.00096086395
0.00048556243 0.00014909187 6.6180227e-18 0.00025013663 0.0016479165 0.0021168238 0.0008267677 0.00010403795
0.0009666175 0.00039509046 0.00029888097 0.0009006857 0.00017489419 0.0005278564 0.00042093982 0.00051010883
0.00019967045 4.3902287e-17 0.00036926108 0.0016157366 0.0003721111 0.00034594687 0.001143969 0.00095690053
0.0004488739 0.00012853029 0.0010528322 0.0011962857 0.0008943179 0.0011296095 0.0008662908 0.0017786829
0.0003828619 0.00068560743 1.932394e-17 0.00056776125 0.0022765133 0.0020007512 0.0010132258 0.00017303618
0.0019304977 0.0011586872 0.00024413144 0.00074998126 0.00013643035 0.00090078136 0.0005653991 0.0011656136
0.0006164136 1.3139472e-15 0.00037931677 0.0019372758 0.0009487391 0.00027821818 0.0016043162 0.00207077
0.00014461794 0.00012042495 0.00060062687 0.0009874318 0.0007647395 0.00071380433 0.00051558146 0.0007896505
0.0003503295 0.0001709441 4.9249734e-19 0.00023217026 0.0014046093 0.0017074189 0.0006935629 0.00010493624
0.0008925002 0.00038530564 0.00025682972 0.00074604416 0.000116747564 0.00043237847 0.00038482653 0.00059450057
0.0002364892 0.0 0.00033835828 0.001337023 0.0003503669 0.0002594763 0.0010833619 0.00081655406
0.00027446073 0.00018200859 0.00087876874 0.0007702529 0.00068574736 0.0009064731 0.00056729023 0.0014431087
0.00023397688 0.00054758973 1.7996916e-17 0.0004014479 0.0016116684 0.001443392 0.0008241643 0.00033472496
0.0017242034 0.0008769507 0.0002276104 0.0007862299 0.00016441115 0.0009362973 0.0007986152 0.00072056666
0.00045128568 1.8420847e-15 0.00040734373 0.0014287346 0.00048643778 0.00016560138 0.000861652 0.0013748045

exp_avg f4 [16]
00000000: 3c49 2fbb 3040 bb3a 2064 923a 30ba 7b3b
00000010: d09b 49ba 5d41 523b 4aa5 32bb fc4f 333a
00000020: 4aac 94bb 523e 10bb c127 863b dcec 10b9
00000030: c832 1eba 2452 0d39 1048 1e38 ee93 ca3b
-0.0026746532 0.0014286097 0.0011168756 0.0038410537 -0.00076907594 0.0032082417 -0.0027259164 0.00068402267
-0.00453714 -0.0022009802 0.0040940945 -0.00013821147 -0.00060347887 0.00013477408 3.773725e-05 0.0061821854

exp_avg_sq f4 [16]
00000000: 05df ee38 b5b0 9838 515f 5038 3d63 b838
00000010: c7b0 5938 0029 b938 175d 4c38 f100 8b38
00000020: 6f76 9038 1327 a038 b1b5 c738 c62c 7438
00000030: eefc 8238 3a32 8438 789d 7d38 ddfe aa38
0.00011390265 7.280839e-05 4.9679835e-05 8.792288e-05 5.190147e-05 8.829124e-05 4.8724087e-05 6.628212e-05
6.888515e-05 7.636673e-05 9.522902e-05 5.821583e-05 6.245995e-05 6.303606e-05 6.0466555e-05 8.153704e-05

exp_avg f4 [10, 16]
00000000: ceab 063c 1d39 733c 1159 9e3c e499 823c
00000010: 7def a83c 053e ab3b 22be fb3b bd05 483c
00000020: 2a7c 583c d71c 9f3b a066 133c 5ea7 b73c
00000030: be01 7a3c 2582 ab3c 9ae7 3a3c 4aa5 923c
00000040: 73f4 80bc 01a3 4fbc cc53 0dbc 73cc 95bc
00000050: 3e00 21bb 2a8e 60bc 8f20 86bc 6b86 19bc
00000060: e37a 2abc 5873 34bc 0eb7 31bc 55fe f1b9
00000070: 8128 06bc 6e06 96bc f41f 83bc 10fc 20bc
00000080: 522a 7fba 8e07 7fbb 003a 32bb b21b f33a
00000090: e2c7 87ba e0b1 c13a 9bfa 62bb 94aa 06ba
000000a0: ca75 9abb 371b 89bb 0724 e4b9 5fdc f3ba
000000b0: c6ca 97bb 888f 03bb 69b3 a5ba 6b8c 8dbb
000000c0: b87a 243d b7ad 5e3c c604 253d 555f 0e3d
000000d0: 2134 7a3c fbbb a43c dcdf f93c fea9 2a3d
000000e0: c178 933c c558 0d3d 03ae 9c3c 60e2 6abb
000000f0: 769b 083b bfee 0b3d 93be 543d 583b 243d
00000100: 6a8a 80bb c34c 34bc 6043 61bc a17f b8bb
00000110: 1b44 50bc a72e f9bb 500b 4fbc 5d15 b4bb
00000120: 16d9 6fbc 5ed0 97bc 0841 e7ba 0dc8 cc3a
00000130: bf26 ebbb 91b7 a0bc 6699 8bbb 4714 3e3b
00000140: 91fd c43b cef0 bc3b c651 283c 4bba 2c3c
00000150: 7fc5 0f3c 9d1b 6d3b 7358 ef3b 24b2 013c
00000160: f0e9 9f3b bf67 dc3b eaf9 a73b 8e3f 233b
00000170: 3e70 6e3b 6c63 713c aa38 0e3c c22b 9f3b
00000180: be93 89bb 59a8 20bc ac6d 7fbc 3bcf 7abc
00000190: 824b 96bc 8dc3 a8bb 61fc dcba 0a68 44bc
000001a0: 8a3d 1fbc 1105 9039 0ecf ddbb 822f 9ebc
000001b0: 9a97 3dbc dea4 9cbc 3b96 f0bb a874 48bc
000001c0: fe27 14bb 4e70 1ab9 72ea 4db9 90ea a8bb
000001d0: e713 97ba 62bd 97ba 8a3a 343b e180 213a
000001e0: 2f95 ea3a d6fb 003b 017f 0ab9 115d 82ba
000001f0: 2ef6 433b eef4 8b3b aed6 83bb 0c5a f8bb
00000200: 5803 843c 639e 4e3c 9342 703c 5615 733c
00000210: 2602 b53b 023a 283c ff86 9c3c 6716 913b
00000220: 3dec 333c 44ba 953c bddf 283c aab8 3d3b
00000230: 6176 ed3b 6ae3 913c 6ef2 963c e797 673c
00000240: d7c9 31bd b639 18bc 92e3 32bd a871 09bd
00000250: c262 6dbc f54e 56bc 3aef 07bd c3a7 21bd
00000260: e8d4 19bc c8ad 06bd b466 c1bc 52db 4ebb
00000270: c072 b739 808e 06bd 68c1 6bbd 9f21 3cbd
0.008219672 0.01484516 0.01932958 0.015942521 0.02062201 0.005225899 0.0076825777 0.012208399
0.013213197 0.004855733 0.008996636 0.022418674 0.015259204 0.020936081 0.011407757 0.017901082
-0.015741562 -0.0126731405 -0.008625936 -0.018285966 -0.0024566795 -0.01370577 -0.016372947 -0.009370427
-0.010405275 -0.011013828 -0.010846866 -0.00046156594 -0.008188368 -0.018313613 -0.016006447 -0.009825721
-0.0009733784 -0.0038914415 -0.0027195215 0.0018547683 -0.0010359252 0.0014777742 -0.0034634236 -0.00051371125
-0.0047137486 -0.0041841525 -0.0004351439 -0.0018605104 -0.004632327 -0.0020074565 -0.0012641969 -0.0043197176
0.040156096 0.0135912215 0.040287755 0.034758884 0.015271218 0.020109167 0.030502252 0.041666023
0.018001916 0.034508485 0.019125944 -0.0035840496 0.0020844615 0.034163233 0.05193956 0.040095657
-0.0039227502 -0.01100463 -0.013748974 -0.005630449 -0.01271155 -0.0076044383 -0.012636974 -0.0054957108
-0.01463916 -0.018531974 -0.0017643282 0.0015623585 -0.0071762498 -0.019618781 -0.00426023 0.0029003785
0.006011673 0.005766011 0.010273403 0.010542463 0.008775114 0.003617979 0.007304245 0.007916007
0.0048801824 0.0067262347 0.0051262276 0.0024909708 0.003638282 0.014733177 0.008680502 0.0048575113
-0.0041985204 -0.009805762 -0.015590113 -0.015308197 -0.018346552 -0.0051502646 -0.0016859883 -0.0119876955
-0.009719262 0.00027469595 -0.0067690676 -0.019309763 -0.011571789 -0.019121584 -0.0073421276 -0.012234844
-0.0022606845 -0.00014728421 -0.00019637661 -0.005154915 -0.0011526317 -0.0011576826 0.0027500712 0.0006160867
0.0017897243 0.0019681356 -0.00013208018 -0.0009945949 0.0029901373 0.0042711413 -0.0040233945 -0.007579094
0.016114876 0.0126110045 0.01466431 0.01483663 0.0055239378 0.010267736 0.01910734 0.0044277194
0.010981617 0.018277295 0.01030725 0.002894918 0.007246778 0.017808635 0.018426146 0.014135337
-0.04340538 -0.009291103 -0.04367406 -0.033555657 -0.014488878 -0.013080348 -0.03318713 -0.03946663
-0.00938914 -0.032880574 -0.023608543 -0.003156383 0.00034989975 -0.032850742 -0.057557493 -0.0459305
